test_lstm_model.pt (torch, 210280 bytes, 9 tensors)

lstm.weight_ih_l0 f4 [256, 5]
000000 1a 16 3a bd a4 ee 00 3e 5a 0b bb 3d 2c 89 60 bd
       -0.045431234 0.12591034 0.091330245 -0.054818317
000010 aa a6 98 3d 72 a9 60 3d 6e 91 8c bc 9a 77 4e bd
       0.07453664 0.054849096 -0.01715919 -0.05040703
000020 3c 48 8e 3d 58 90 04 3e f6 6e dc bd ba 38 ae 3d
       0.06947371 0.12945688 -0.107633516 0.085069135
000030 0c 56 d5 3d 00 44 c2 39 04 24 1b 3e 40 e0 b8 3d
       0.10416803 0.00037053227 0.15150458 0.09027147
000040 08 2a 7b bd 96 a8 89 bd f6 99 15 bd 30 17 f2 3d
       -0.06131938 -0.06721608 -0.03652378 0.11820829
000050 ca 18 e6 bd 36 cb 12 3e 9c cc 20 3d 00 58 b8 ba
       -0.11235197 0.14335331 0.03925763 -0.0014064312
000060 5c 58 f9 bd 8e 81 af 3d de 9a c8 3d e4 12 f6 3d
       -0.12175056 0.085696325 0.097951636 0.12015322
000070 9c 55 5b 3d b0 42 bc 3c 28 1a 8b 3d b0 bb fc 3c
       0.05354844 0.022981018 0.06792098 0.030851215
000080 8c 51 8d bd 10 e0 bf 3d 88 42 89 3d cc 4b b4 bd
       -0.069003195 0.093689084 0.06702143 -0.088035196
000090 31 d8 98 3c 83 97 86 3d 31 3d a8 3d 3c bb cf bd
       0.018657776 0.06571867 0.08214796 -0.10143134
0000a0 d8 fe f2 bc 02 ef 91 bd a0 d7 c8 3b c8 1d 83 bc
       -0.029662535 -0.07125665 0.00612922 -0.016005412
0000b0 06 37 1a 3e 50 31 fd 3d ca ad 17 3e 50 84 00 3c
       0.15060052 0.12362921 0.14812389 0.007844046
0000c0 77 62 02 be fe c8 10 3e a0 e4 a0 bd 10 37 68 3d
       -0.12732874 0.14139172 -0.07856107 0.056693137
0000d0 70 0f fa 3d c0 84 48 3b 62 de 25 bd a4 2f 2d bd
       0.12209976 0.0030596703 -0.040495284 -0.04228176
0000e0 4e 9a 2f bd 28 8d 51 3d e8 17 ad 3d 5c c0 83 bd
       -0.042871766 0.051160008 0.084518254 -0.06433174
0000f0 9a 80 91 3d 71 c9 b1 bd 1c 3e 0a 3e 08 62 19 3d
       0.07104607 -0.08681 0.13500255 0.037447006
000100 f8 c9 a9 3c 96 e8 4d bd 98 43 b6 bc e2 ba fa bd
       0.020726189 -0.05027064 -0.022249028 -0.12242676
000110 ac 04 40 3d fa 08 fe bd 30 2d af 3c 58 00 3a 3d
       0.046879455 -0.12404056 0.021383852 0.045410484
000120 74 41 d8 3d 94 25 f5 3d b5 6f 83 bd d8 f7 8b 3c
       0.10559359 0.11970058 -0.06417791 0.017085955
000130 37 23 02 be fc ff 13 3e 3b d9 9a bd e4 a5 00 3d
       -0.12708746 0.14453119 -0.07560965 0.031408206
000140 20 dc 16 3e 3c 07 00 3e 94 d3 af bd d1 5f 16 be
       0.14732409 0.1250276 -0.08585277 -0.14684989
000150 08 73 12 3e d8 f7 c9 bd 3e 87 01 be c0 50 ba 3d
       0.14301693 -0.098617256 -0.12649247 0.09097433
000160 d8 27 0c 3e b0 51 20 3d 83 ce dd bd 20 36 6f 3d
       0.13687074 0.039140403 -0.108304046 0.058401227
000170 94 3f e3 3d 2b 77 17 be 6c ae 2c bd 36 76 02 be
       0.11096111 -0.14791553 -0.04215853 -0.12740406
000180 38 51 e7 bd 25 b4 00 be b8 b4 83 bc 4e 02 a0 bd
       -0.11294788 -0.1256872 -0.016077384 -0.078129396
000190 40 8b f0 3b 60 0f 6f bc d2 c6 cd bd b2 33 82 bd
       0.0073408186 -0.014591068 -0.100476876 -0.06357516
0001a0 f8 8c c8 bd cc c4 ff 3d e8 75 10 3d 60 d3 9b bc
       -0.09792513 0.12488708 0.035268694 -0.01902169
0001b0 00 2d 04 3a e4 9d 05 3d a8 6a 10 3e 06 3e 9d bd
       0.0005042106 0.03262128 0.14103186 -0.07677846
0001c0 f0 17 99 bc 5c 3e e9 bd 0c 62 8e bd 60 35 d6 bb
       -0.018688172 -0.11388847 -0.06952295 -0.0065371245
0001d0 92 a0 15 3e 9d 80 05 be 3a ee 0b 3e 8c 4c 3f bd
       0.14612034 -0.13037343 0.13665095 -0.04670386
0001e0 f8 cd 6c 3d 00 e0 8f b7 fc 4a 0a 3e 5a 03 29 bd
       0.057813615 -1.7151237e-05 0.13505167 -0.041262962
0001f0 4b 1a b2 bd 9a fb a4 3d 8a 01 84 bd 68 de e0 bd
       -0.08696421 0.08055802 -0.06445606 -0.109799206
000200 6a 28 b2 3d 92 60 17 3e b4 e7 08 3e a0 d3 a5 3b
       0.086991146 0.14782932 0.13369638 0.005060628
000210 40 b3 e2 bd b8 21 e2 3d 25 d2 a4 bd 94 46 be bd
       -0.110693455 0.110415876 -0.080478944 -0.092908055
000220 3a 49 ad 3d a0 0a 5b bc 5e 5f 0d 3e 00 c0 2f bc
       0.084612325 -0.013369232 0.13805911 -0.010726929
000230 b0 de 5d 3c e4 9c 30 bd a8 d6 b1 3d 80 c3 e6 3d
       0.013541862 -0.043118373 0.086835206 0.112677574
000240 80 01 6f bc 38 6a 56 3d d0 cb 4c 3c a8 be 86 3d
       -0.01458776 0.05234739 0.012499765 0.065793335
000250 a0 a6 04 bd 08 49 ed bc cc 6a 25 3d 4e c1 9e bd
       -0.03238547 -0.028965488 0.040385053 -0.07751714
000260 78 a7 16 3d 92 8d db bd 7c 43 3b 3d 30 08 a2 bd
       0.036780804 -0.10720362 0.045718655 -0.07911718
000270 70 51 13 be bc 3c fe 3d 13 95 d5 bd 2e a3 95 bd
       -0.14386535 0.12413928 -0.10428824 -0.07306515
000280 99 03 16 be fd f1 a6 bd fe 4f b2 bd e0 cd cd 3b
       -0.1464981 -0.08151624 -0.087066635 0.0062806457
000290 48 05 71 bd d2 3d 18 bd f4 59 40 3d d5 c8 81 bd
       -0.058842927 -0.03716833 0.046960786 -0.06337134
0002a0 4e 01 99 bd 3c 75 e3 3d 43 3c 1a be b8 7e 3c 3d
       -0.07470952 0.11106345 -0.1506205 0.046019286
0002b0 20 e0 ca 3c f4 2f f2 3d 3a 99 88 bd c4 44 ea bd
       0.024765074 0.118255526 -0.06669851 -0.11438897
0002c0 fc 95 13 be 47 5b a6 bd b0 d0 06 be 8e 91 b7 3d
       -0.14412683 -0.081228785 -0.13165545 0.08963309
0002d0 00 4a 99 b9 ee 89 d5 bd 04 64 ae 3d 90 2a 4b 3d
       -0.00029237568 -0.104266986 0.0851517 0.049601138
0002e0 90 01 c4 bc 4e 8e 07 3e 0c 7d 0f 3d e4 55 ff 3d
       -0.023926526 0.13237879 0.035031363 0.12467554
0002f0 9d a9 15 be 6a 47 51 bd 16 87 8a 3d 8d 52 03 be
       -0.14615484 -0.051093496 0.06764047 -0.1282446
000300 8a 06 6a bd 0d a8 17 be 02 fb 55 bd 0c 59 c4 bd
       -0.057135142 -0.148102 -0.052241333 -0.09587297
000310 10 b7 4e bc 44 e2 0e 3e e8 0e d0 bc 6a a6 80 bd
       -0.012616888 0.13953501 -0.025397733 -0.06281741
000320 98 14 d8 3d 58 e1 6a 3d ff 20 9e bd 38 d8 9f 3d
       0.10550803 0.05734381 -0.07721137 0.07804912
000330 08 1b e6 3c 1c f1 b7 bd c2 97 3e bd 30 7d 7a 3c
       0.028089061 -0.08981535 -0.046531446 0.015288636
000340 9e a9 aa 3d 20 91 b7 bc c8 8e 1a 3e 20 77 1b 3d
       0.08333133 -0.022408068 0.15093529 0.037955403
000350 2a e6 c0 3d e4 46 72 3d e8 16 8b 3c 28 0a e6 3d
       0.094189 0.059149638 0.016978696 0.11232406
000360 c8 ce f5 3d 6e a1 cd bd 80 e7 dc 3b c6 61 ac 3d
       0.12002331 -0.10040556 0.006741464 0.08417086
000370 69 ac 98 bd f0 65 d2 bd a0 ae eb 3c 20 67 e4 3c
       -0.0745476 -0.10273349 0.028769791 0.027881205
000380 c0 1e 23 bc 4e ed e6 bd 0f ea 10 be 00 58 c0 3b
       -0.009956062 -0.11275731 -0.14151786 0.0058698654
000390 e8 d4 ce 3c b0 72 49 3c 74 1f d9 3d 9a a2 14 3e
       0.025248006 0.01229541 0.10601702 0.14515153
0003a0 cc 3f 1f 3d dc 21 02 be f0 79 64 3c d9 bf fd 3c
       0.0388792 -0.12708229 0.013945088 0.03097527
0003b0 8f 2c 9e bc 3f 27 8e 3d 6d 47 10 3e 19 b0 e8 bd
       -0.019308357 0.06941079 0.14089747 -0.11361713
0003c0 c0 86 5b bc 4c c3 75 bd 34 5c de 3d c3 ed 19 be
       -0.013398826 -0.060000703 0.1085743 -0.15032105
0003d0 a0 bd 00 3c 00 d1 a9 ba c0 e7 0d 3e f0 6d 3e 3d
       0.00785771 -0.0012955964 0.13857937 0.046491563
0003e0 7c bd 06 be 14 0a ad 3d 16 7c d4 bd 88 e9 74 3d
       -0.1315822 0.08449188 -0.1037523 0.059793025
0003f0 bc d3 a2 3d d4 50 03 3d 0e 73 01 be 7a 98 0e be
       0.079505414 0.032059506 -0.12641546 -0.13925353

lstm.weight_hh_l0 f4 [256, 64]
000000 00 3a f5 3c ec 3a 92 bc 61 cc f2 bd 72 ef 8a bd
       0.029934883 -0.017850362 -0.118553884 -0.06783952
000010 f4 b2 ad bc 48 ea f8 3c b4 19 cc 3d 80 31 36 bc
       -0.021203496 0.030385152 0.0996584 -0.0111202
000020 aa fa fa bd 28 b9 df 3c 1c 39 ca 3d 80 60 ef 3d
       -0.122548416 0.027309969 0.09874174 0.11688328
000030 e2 a5 a7 bd 08 84 28 bd 30 a7 f8 3d ea e7 29 bd
       -0.081859365 -0.04114154 0.121412635 -0.041480936
000040 80 00 78 3b 28 dc 37 3d 24 29 cc 3d f0 3d 54 bc
       0.0037842095 0.04488769 0.099687845 -0.01295422
000050 28 89 3d 3d 00 8a 65 ba 72 b4 68 bd a0 34 45 bc
       0.04627338 -0.00087562203 -0.05681271 -0.012036473
000060 e8 30 e4 bc a1 b6 fa bd d6 0a a8 bd a2 23 02 bd
       -0.027855352 -0.12241865 -0.08205192 -0.031772263
000070 fc 77 1b 3d 72 21 de 3d d6 7c cc bd 80 16 32 bb
       0.037956223 0.10846223 -0.09984748 -0.0027174056
000080 fa 47 9a 3d ba b5 c1 bd 2c 42 48 3d a8 51 08 3e
       0.0753326 -0.0945849 0.04889123 0.133124
000090 78 2b 75 3d 36 68 c1 bd 8a 0d 4b bd 5a 7f ec bd
       0.05985591 -0.09443705 -0.04957346 -0.11547728
0000a0 4a 47 c4 3d 8c 20 f4 bc c0 b0 0c bd 72 b4 b6 bd
       0.0958391 -0.029800676 -0.03434825 -0.08921136
0000b0 5c ad 2d bd 4c ec 0a be 68 fa 97 3c 9e fa fd bd
       -0.042401657 -0.13566703 0.01855202 -0.12401317
0000c0 a0 54 f6 3d 1c ce e2 bd 4a 60 72 bd 44 b6 e6 bc
       0.1202786 -0.110744685 -0.05917386 -0.028163083
0000d0 92 ca 80 3d 04 c3 d9 bd b2 62 9c 3d f0 d8 f5 bd
       0.06288637 -0.106328994 0.07636012 -0.12004268
0000e0 fc f0 30 3d bc cd 65 bd 66 ad 08 3e 34 1c e7 bc
       0.04319857 -0.056104407 0.13347396 -0.02821169
0000f0 58 de 98 3d da 80 e7 bd d8 8a 9e 3d 64 d9 46 bd
       0.07464284 -0.11303873 0.07741326 -0.048547164
000100 c0 77 c8 bd 9a ac 86 3d b4 40 b3 bd 81 6a d1 bd
       -0.097884655 0.0657589 -0.087525755 -0.10225392
000110 3e 5e d0 3d 12 1d 77 bd d8 d7 16 3d 86 a9 ca bd
       0.10174225 -0.060330458 0.03682694 -0.09895615
000120 e4 a7 a2 bd 04 34 ac bd 16 c7 a1 3d f0 f0 09 3d
       -0.07942179 -0.08408359 0.07899301 0.03367704
000130 e0 b6 04 3e 80 1a 42 3c f4 1d ef 3d fc 88 6c 3d
       0.12960386 0.011847138 0.11675635 0.057747826
000140 e8 8d f5 3d 7a cb b7 3d c5 e0 67 3c a8 9a 6c 3d
       0.11989957 0.08974357 0.01415271 0.05776468
000150 8c ce 30 3d 42 fb f6 3c 30 ac 93 bc 18 88 94 3d
       0.04316573 0.030149106 -0.018026441 0.0725252
000160 18 c2 52 3d 0c 7c a0 bd 94 33 6a bd 6b 9a 87 bd
       0.051454633 -0.0783616 -0.057178095 -0.0662125
000170 18 85 b9 bd b4 7c 90 3d 98 c3 a8 bd 6d 40 84 bd
       -0.09058589 0.07055035 -0.082404315 -0.06457601
000180 d4 d1 24 3d 14 0a 20 3d 00 82 c7 3a c0 31 0e 3d
       0.04023917 0.03907211 0.0015221238 0.034715414
000190 00 42 32 3b 40 4e aa 3c 01 6a ca bd d4 d5 40 3d
       0.0027199984 0.020789266 -0.098835 0.047078922
0001a0 16 4c cd bd 98 68 f4 bd 5e 3f db 3d 58 be 88 bd
       -0.10024278 -0.11934012 0.10705446 -0.0667693
0001b0 78 48 03 3e 64 d3 04 3e 5a 8e e9 bc 60 d9 5a 3d
       0.12820613 0.12971264 -0.028510261 0.05342996
0001c0 56 1e a3 bd 6c 1a b5 3d bc e6 a1 bd a0 76 c7 3d
       -0.079647705 0.0884293 -0.07905337 0.09739423
0001d0 ce d3 a9 bd 90 ce c5 bd e0 21 fd bb 80 09 24 3c
       -0.08292352 -0.09658539 -0.0077249855 0.010012031
0001e0 a2 59 a2 bd 42 d5 b8 3d 30 fc 95 3c 0f 7b 87 3c
       -0.07927252 0.09025051 0.018308729 0.016538171
0001f0 76 17 9a 3d 4c af e0 3d 18 95 89 3d 6f 35 06 be
       0.07524006 0.10970935 0.067178905 -0.13106321
000200 d0 d4 2a bc cc e8 c5 3d a4 0d a5 3d 00 47 77 3b
       -0.010426715 0.09663543 0.08059242 0.0037731528
000210 b8 3d 60 3d 38 cb da 3c 60 75 d8 3b 80 5d 4e bd
       0.05474636 0.02670823 0.006605789 -0.050382137
000220 00 3d cc 3a a2 3e 03 3e 9a 11 8e 3d 9c 35 91 3d
       0.0015582144 0.12816861 0.06936951 0.07090303
000230 7e 2b ae bd 48 f7 07 3e 04 49 a8 bc f0 f2 e7 3d
       -0.08504389 0.13277924 -0.020542629 0.113256335
000240 3e 1b 83 bd f0 fa de bd a0 88 00 bd c0 79 64 3d
       -0.064016804 -0.10887706 -0.031380296 0.055780172
000250 e8 08 f7 3d 8e e9 b9 bd 26 f3 22 bd 68 d9 98 3d
       0.120622456 -0.0907775 -0.039782666 0.07463342
000260 68 36 e2 3d 5f 8d 06 be ba 52 c5 bd 86 e4 e2 3d
       0.110455334 -0.13139866 -0.096349195 0.11078744
000270 18 6c 68 bd 91 b7 f2 bd e8 6f 95 bd a0 51 06 bc
       -0.05674371 -0.11851419 -0.07296735 -0.008198172
000280 32 38 ed bd 4e 47 50 bd 08 9a f4 3d 68 d5 32 3d
       -0.11582984 -0.05084925 0.11943442 0.04366055
000290 20 6c 38 3c e8 60 75 3d e8 d3 ec bd 04 80 c2 bc
       0.011256248 0.05990687 -0.115638554 -0.023742683
0002a0 4d 6b d2 bd 58 16 a4 3d 22 62 4b bd 2c 85 79 bd
       -0.10274372 0.08012074 -0.049654134 -0.06091802
0002b0 e9 d2 9d bd 97 30 8c bd d4 6e 23 3d 6e 3c d6 3d
       -0.077062435 -0.06845205 0.039900616 0.10460745
0002c0 90 de af 3d a4 11 75 3d dc f8 f5 bd ad e8 00 be
       0.08587372 0.059831277 -0.12010357 -0.12588759
0002d0 0a 1d 00 3e dc 07 cc bd 40 90 6a 3b 5c 21 95 bc
       0.12511078 -0.099624366 0.0035791546 -0.018204384
0002e0 40 12 2e bc 47 2c 8d bd 8c 48 d9 3d 46 23 c0 bd
       -0.010624468 -0.06893211 0.1060954 -0.09381728
0002f0 58 e5 d6 3d d0 ee 00 3c 0a 4d a9 bd 12 bd b0 bd
       0.104929626 0.007869437 -0.08266647 -0.08629812
000300 70 d6 8f 3c 00 1a e9 3d d1 71 88 bd 6c 5a 8d bc
       0.017558306 0.11381912 -0.06662334 -0.01725503
000310 70 fb a8 3d 54 b9 b8 3d a2 97 af bd 99 0c 84 bd
       0.08251083 0.090197235 -0.085738435 -0.06447715
000320 0e bb 27 bd 1e 70 ca bd 24 dd 8d 3d 38 dc 9c bd
       -0.040949874 -0.09884666 0.06926945 -0.07659191
000330 01 8a df bd 78 ea c7 3c 28 ac d7 bd 00 bf fd 3b
       -0.10914994 0.024403796 -0.10530883 0.0077437162
000340 ca a0 98 bd 28 7d 48 3d fa a4 c3 3d 38 eb 6f 3d
       -0.07452543 0.048947483 0.09552951 0.05857393
000350 b4 06 ed 3d 78 10 eb bc 80 1e 3b 3d 80 de e3 3c
       0.11573544 -0.028694376 0.045683384 0.027816057
000360 be 89 51 bd 30 c4 b8 3d 80 33 08 bb ec dd 98 bc
       -0.05115675 0.09021795 -0.002078265 -0.018660508
000370 b0 88 3f 3d b0 5e 07 be d8 e8 a9 3c 26 01 b4 bd
       0.046761215 -0.13219714 0.020740911 -0.087892815
000380 28 cf 9a 3c 5e 1d 0a be d6 3e 4d bd 16 ea b2 bd
       0.018897608 -0.13487765 -0.050108753 -0.087360546
000390 e0 1e d3 3b 9c d8 11 3d b8 9a e9 3d 44 be b0 3d
       0.0064428896 0.035606965 0.114064634 0.0863004
0003a0 9c c0 3c 3d fc 32 bb bc 2c b7 d8 bd 78 a5 aa bc
       0.046082124 -0.02285146 -0.10581812 -0.020830855
0003b0 08 a1 56 3d 12 9b 05 3e 27 d8 fd bd 38 77 e9 3c
       0.052399665 0.13047436 -0.123947434 0.02849923
0003c0 02 c6 0a bd a7 15 ae bd 14 31 e1 bd 24 93 a4 3d
       -0.03388024 -0.085002236 -0.10995689 0.08035877
0003d0 d0 ad cb 3d ca 65 cd bd a0 91 8b 3c 82 78 a8 3d
       0.099452615 -0.1002918 0.017037213 0.0822611
0003e0 14 1d 4c 3d 9e 51 88 3d 70 3d 7c 3c e2 97 cb bd
       0.04983242 0.06656192 0.015395507 -0.09941079
0003f0 38 45 b6 3d 7c 6a 87 3d d8 93 12 bd fe 71 cc bd
       0.08899921 0.06612107 -0.035785526 -0.0998268

lstm.bias_ih_l0 f4 [256]
000000 00 00 00 00 c6 0b d3 b1 00 00 00 00 00 00 00 00
       0.0 -6.1422467e-09 0.0 0.0
000010 00 00 00 00 00 00 00 00 00 00 00 00 e1 10 df 3b
       0.0 0.0 0.0 0.006807432
000020 00 00 00 00 00 00 00 00 00 00 00 00 00 00 00 00
       0.0 0.0 0.0 0.0
000030 00 00 00 00 02 50 c3 0b 00 00 00 00 00 00 00 00
       0.0 7.523165e-32 0.0 0.0
000040 00 00 00 00 00 00 00 00 00 00 00 00 00 00 00 00
       0.0 0.0 0.0 0.0
000050 b8 82 dd 9e 00 00 00 00 b5 bb 81 07 00 00 00 00
       -2.3453349e-20 0.0 1.9520087e-34 0.0
000060 00 00 00 00 69 f0 3f 1c 00 00 00 00 00 00 00 00
       0.0 6.350732e-22 0.0 0.0
000070 00 00 00 00 00 00 00 00 00 00 00 00 00 00 00 00
       0.0 0.0 0.0 0.0
000080 00 00 00 00 00 00 00 00 00 00 00 00 00 00 00 00
       0.0 0.0 0.0 0.0
000090 00 00 00 00 00 00 00 00 00 00 00 00 00 00 00 00
       0.0 0.0 0.0 0.0
0000a0 00 00 00 00 e9 af 52 17 00 00 00 00 00 00 00 00
       0.0 6.807669e-25 0.0 0.0
0000b0 00 00 00 00 00 00 00 00 00 00 00 00 9c 06 35 bb
       0.0 0.0 0.0 -0.0027622348
0000c0 5a 98 92 8d 00 00 00 00 00 00 00 00 df 82 c8 3b
       -9.034622e-31 0.0 0.0 0.0061191167
0000d0 00 00 00 00 72 eb d4 12 e1 d0 75 1b 00 00 00 00
       0.0 1.3437123e-27 2.0333417e-22 0.0
0000e0 16 e5 0a 1d 00 00 00 00 87 82 dc 3b 00 00 00 00
       1.8382583e-21 0.0 0.0067294273 0.0
0000f0 00 00 00 00 7d 6e 84 bb 00 00 00 00 ae 4e a1 3b
       0.0 -0.0040414915 0.0 0.0049227094
000100 b2 ef 9d 33 00 00 00 00 00 00 00 00 00 00 00 00
       7.3544825e-08 0.0 0.0 0.0
000110 00 00 00 00 29 a3 0b 1b 00 00 00 00 34 d7 1c 3b
       0.0 1.155053e-22 0.0 0.0023931982
000120 00 00 00 00 00 00 00 00 00 00 00 00 00 00 00 00
       0.0 0.0 0.0 0.0
000130 00 00 00 00 00 00 00 00 c3 2a c7 9e 00 00 00 00
       0.0 0.0 -2.108763e-20 0.0
000140 e2 95 a0 8b 00 00 00 00 00 00 00 00 00 00 00 00
       -6.1855277e-32 0.0 0.0 0.0
000150 00 00 00 00 00 00 00 00 00 00 00 00 00 00 00 00
       0.0 0.0 0.0 0.0
000160 00 00 00 00 00 00 00 00 00 00 00 00 00 00 00 00
       0.0 0.0 0.0 0.0
000170 00 00 00 00 00 00 00 00 00 00 00 00 00 00 00 00
       0.0 0.0 0.0 0.0
000180 00 00 00 00 00 00 00 00 00 00 00 00 00 00 00 00
       0.0 0.0 0.0 0.0
000190 00 00 00 00 00 00 00 00 00 00 00 00 00 00 00 00
       0.0 0.0 0.0 0.0
0001a0 00 00 00 00 00 00 00 00 00 00 00 00 5c a0 24 9a
       0.0 0.0 0.0 -3.4043942e-23
0001b0 00 00 00 00 00 00 00 00 1e d5 93 3b 00 00 00 00
       0.0 0.0 0.0045114895 0.0
0001c0 00 00 00 00 00 00 00 00 00 00 00 00 00 00 00 00
       0.0 0.0 0.0 0.0
0001d0 00 00 00 00 00 00 00 00 00 00 00 00 00 00 00 00
       0.0 0.0 0.0 0.0
0001e0 00 00 00 00 00 00 00 00 00 00 00 00 00 00 00 00
       0.0 0.0 0.0 0.0
0001f0 00 00 00 00 00 00 00 00 00 00 00 00 72 40 0d 12
       0.0 0.0 0.0 4.457119e-28
000200 00 00 00 00 00 00 00 00 00 00 00 00 00 00 00 00
       0.0 0.0 0.0 0.0
000210 00 00 00 00 00 00 00 00 00 00 00 00 00 00 00 00
       0.0 0.0 0.0 0.0
000220 00 00 00 00 00 00 00 00 d7 ae c4 3b 00 00 00 00
       0.0 0.0 0.006002288 0.0
000230 00 00 00 00 00 00 00 00 00 00 00 00 00 00 00 00
       0.0 0.0 0.0 0.0
000240 00 00 00 00 00 00 00 00 00 00 00 00 00 00 00 00
       0.0 0.0 0.0 0.0
000250 00 00 00 00 00 00 00 00 00 00 00 00 00 00 00 00
       0.0 0.0 0.0 0.0
000260 00 00 00 00 00 00 00 00 00 00 00 00 00 00 00 00
       0.0 0.0 0.0 0.0
000270 00 00 00 00 00 00 00 00 00 00 00 00 00 00 00 00
       0.0 0.0 0.0 0.0
000280 00 00 00 00 00 00 00 00 00 00 00 00 00 00 00 00
       0.0 0.0 0.0 0.0
000290 00 00 00 00 00 00 00 00 00 00 00 00 00 00 00 00
       0.0 0.0 0.0 0.0
0002a0 00 00 00 00 00 00 00 00 00 00 00 00 00 00 00 00
       0.0 0.0 0.0 0.0
0002b0 00 00 00 00 00 00 00 00 00 00 00 00 00 00 00 00
       0.0 0.0 0.0 0.0
0002c0 00 00 00 00 00 00 00 00 00 00 00 00 00 00 00 00
       0.0 0.0 0.0 0.0
0002d0 00 00 00 00 00 00 00 00 00 00 00 00 00 00 00 00
       0.0 0.0 0.0 0.0
0002e0 00 00 00 00 00 00 00 00 00 00 00 00 e4 3f c6 39
       0.0 0.0 0.0 0.00037813105
0002f0 00 00 00 00 00 00 00 00 00 00 00 00 00 00 00 00
       0.0 0.0 0.0 0.0
000300 00 00 00 00 e6 42 d3 b1 00 00 00 00 00 00 00 00
       0.0 -6.1485137e-09 0.0 0.0
000310 00 00 00 00 00 00 00 00 00 00 00 00 00 00 00 00
       0.0 0.0 0.0 0.0
000320 00 00 00 00 00 00 00 00 00 00 00 00 00 00 00 00
       0.0 0.0 0.0 0.0
000330 00 00 00 00 02 50 c3 0b 00 00 00 00 00 00 00 00
       0.0 7.523165e-32 0.0 0.0
000340 d2 e5 83 bb 00 00 00 00 00 00 00 00 00 00 00 00
       -0.0040251995 0.0 0.0 0.0
000350 b8 82 dd 9e 00 00 00 00 00 00 00 00 00 00 00 00
       -2.3453349e-20 0.0 0.0 0.0
000360 00 00 00 00 00 00 00 00 00 00 00 00 00 00 00 00
       0.0 0.0 0.0 0.0
000370 00 00 00 00 00 00 00 00 00 00 00 00 00 00 00 00
       0.0 0.0 0.0 0.0
000380 00 00 00 00 00 00 00 00 38 9f a9 3b 00 00 00 00
       0.0 0.0 0.005176451 0.0
000390 00 00 00 00 4c 10 1d 2a 00 00 00 00 00 00 00 00
       0.0 1.3950055e-13 0.0 0.0
0003a0 28 41 61 b7 00 00 00 00 00 00 00 00 68 e3 51 b3
       -1.3426215e-05 0.0 0.0 -4.886843e-08
0003b0 00 00 00 00 00 00 00 00 00 00 00 00 00 00 00 00
       0.0 0.0 0.0 0.0
0003c0 5a 98 92 8d 77 8e e1 9f 00 00 00 00 ae 98 b6 3b
       -9.034622e-31 -9.5526895e-20 0.0 0.0055724
0003d0 00 00 00 00 00 00 00 00 ea d0 75 1b 00 00 00 00
       0.0 0.0 2.0333429e-22 0.0
0003e0 00 00 00 00 00 00 00 00 00 00 00 00 00 00 00 00
       0.0 0.0 0.0 0.0
0003f0 00 00 00 00 00 00 00 00 00 00 00 00 00 00 00 00
       0.0 0.0 0.0 0.0

lstm.bias_hh_l0 f4 [256]
000000 00 00 00 00 c6 0b d3 b1 00 00 00 00 00 00 00 00
       0.0 -6.1422467e-09 0.0 0.0
000010 00 00 00 00 00 00 00 00 00 00 00 00 e1 10 df 3b
       0.0 0.0 0.0 0.006807432
000020 00 00 00 00 00 00 00 00 00 00 00 00 00 00 00 00
       0.0 0.0 0.0 0.0
000030 00 00 00 00 02 50 c3 0b 00 00 00 00 00 00 00 00
       0.0 7.523165e-32 0.0 0.0
000040 00 00 00 00 00 00 00 00 00 00 00 00 00 00 00 00
       0.0 0.0 0.0 0.0
000050 b8 82 dd 9e 00 00 00 00 b5 bb 81 07 00 00 00 00
       -2.3453349e-20 0.0 1.9520087e-34 0.0
000060 00 00 00 00 69 f0 3f 1c 00 00 00 00 00 00 00 00
       0.0 6.350732e-22 0.0 0.0
000070 00 00 00 00 00 00 00 00 00 00 00 00 00 00 00 00
       0.0 0.0 0.0 0.0
000080 00 00 00 00 00 00 00 00 00 00 00 00 00 00 00 00
       0.0 0.0 0.0 0.0
000090 00 00 00 00 00 00 00 00 00 00 00 00 00 00 00 00
       0.0 0.0 0.0 0.0
0000a0 00 00 00 00 e9 af 52 17 00 00 00 00 00 00 00 00
       0.0 6.807669e-25 0.0 0.0
0000b0 00 00 00 00 00 00 00 00 00 00 00 00 9c 06 35 bb
       0.0 0.0 0.0 -0.0027622348
0000c0 5a 98 92 8d 00 00 00 00 00 00 00 00 df 82 c8 3b
       -9.034622e-31 0.0 0.0 0.0061191167
0000d0 00 00 00 00 72 eb d4 12 e1 d0 75 1b 00 00 00 00
       0.0 1.3437123e-27 2.0333417e-22 0.0
0000e0 16 e5 0a 1d 00 00 00 00 87 82 dc 3b 00 00 00 00
       1.8382583e-21 0.0 0.0067294273 0.0
0000f0 00 00 00 00 7d 6e 84 bb 00 00 00 00 ae 4e a1 3b
       0.0 -0.0040414915 0.0 0.0049227094
000100 b2 ef 9d 33 00 00 00 00 00 00 00 00 00 00 00 00
       7.3544825e-08 0.0 0.0 0.0
000110 00 00 00 00 29 a3 0b 1b 00 00 00 00 34 d7 1c 3b
       0.0 1.155053e-22 0.0 0.0023931982
000120 00 00 00 00 00 00 00 00 00 00 00 00 00 00 00 00
       0.0 0.0 0.0 0.0
000130 00 00 00 00 00 00 00 00 c3 2a c7 9e 00 00 00 00
       0.0 0.0 -2.108763e-20 0.0
000140 e2 95 a0 8b 00 00 00 00 00 00 00 00 00 00 00 00
       -6.1855277e-32 0.0 0.0 0.0
000150 00 00 00 00 00 00 00 00 00 00 00 00 00 00 00 00
       0.0 0.0 0.0 0.0
000160 00 00 00 00 00 00 00 00 00 00 00 00 00 00 00 00
       0.0 0.0 0.0 0.0
000170 00 00 00 00 00 00 00 00 00 00 00 00 00 00 00 00
       0.0 0.0 0.0 0.0
000180 00 00 00 00 00 00 00 00 00 00 00 00 00 00 00 00
       0.0 0.0 0.0 0.0
000190 00 00 00 00 00 00 00 00 00 00 00 00 00 00 00 00
       0.0 0.0 0.0 0.0
0001a0 00 00 00 00 00 00 00 00 00 00 00 00 5c a0 24 9a
       0.0 0.0 0.0 -3.4043942e-23
0001b0 00 00 00 00 00 00 00 00 1e d5 93 3b 00 00 00 00
       0.0 0.0 0.0045114895 0.0
0001c0 00 00 00 00 00 00 00 00 00 00 00 00 00 00 00 00
       0.0 0.0 0.0 0.0
0001d0 00 00 00 00 00 00 00 00 00 00 00 00 00 00 00 00
       0.0 0.0 0.0 0.0
0001e0 00 00 00 00 00 00 00 00 00 00 00 00 00 00 00 00
       0.0 0.0 0.0 0.0
0001f0 00 00 00 00 00 00 00 00 00 00 00 00 72 40 0d 12
       0.0 0.0 0.0 4.457119e-28
000200 00 00 00 00 00 00 00 00 00 00 00 00 00 00 00 00
       0.0 0.0 0.0 0.0
000210 00 00 00 00 00 00 00 00 00 00 00 00 00 00 00 00
       0.0 0.0 0.0 0.0
000220 00 00 00 00 00 00 00 00 d7 ae c4 3b 00 00 00 00
       0.0 0.0 0.006002288 0.0
000230 00 00 00 00 00 00 00 00 00 00 00 00 00 00 00 00
       0.0 0.0 0.0 0.0
000240 00 00 00 00 00 00 00 00 00 00 00 00 00 00 00 00
       0.0 0.0 0.0 0.0
000250 00 00 00 00 00 00 00 00 00 00 00 00 00 00 00 00
       0.0 0.0 0.0 0.0
000260 00 00 00 00 00 00 00 00 00 00 00 00 00 00 00 00
       0.0 0.0 0.0 0.0
000270 00 00 00 00 00 00 00 00 00 00 00 00 00 00 00 00
       0.0 0.0 0.0 0.0
000280 00 00 00 00 00 00 00 00 00 00 00 00 00 00 00 00
       0.0 0.0 0.0 0.0
000290 00 00 00 00 00 00 00 00 00 00 00 00 00 00 00 00
       0.0 0.0 0.0 0.0
0002a0 00 00 00 00 00 00 00 00 00 00 00 00 00 00 00 00
       0.0 0.0 0.0 0.0
0002b0 00 00 00 00 00 00 00 00 00 00 00 00 00 00 00 00
       0.0 0.0 0.0 0.0
0002c0 00 00 00 00 00 00 00 00 00 00 00 00 00 00 00 00
       0.0 0.0 0.0 0.0
0002d0 00 00 00 00 00 00 00 00 00 00 00 00 00 00 00 00
       0.0 0.0 0.0 0.0
0002e0 00 00 00 00 00 00 00 00 00 00 00 00 e4 3f c6 39
       0.0 0.0 0.0 0.00037813105
0002f0 00 00 00 00 00 00 00 00 00 00 00 00 00 00 00 00
       0.0 0.0 0.0 0.0
000300 00 00 00 00 e6 42 d3 b1 00 00 00 00 00 00 00 00
       0.0 -6.1485137e-09 0.0 0.0
000310 00 00 00 00 00 00 00 00 00 00 00 00 00 00 00 00
       0.0 0.0 0.0 0.0
000320 00 00 00 00 00 00 00 00 00 00 00 00 00 00 00 00
       0.0 0.0 0.0 0.0
000330 00 00 00 00 02 50 c3 0b 00 00 00 00 00 00 00 00
       0.0 7.523165e-32 0.0 0.0
000340 d2 e5 83 bb 00 00 00 00 00 00 00 00 00 00 00 00
       -0.0040251995 0.0 0.0 0.0
000350 b8 82 dd 9e 00 00 00 00 00 00 00 00 00 00 00 00
       -2.3453349e-20 0.0 0.0 0.0
000360 00 00 00 00 00 00 00 00 00 00 00 00 00 00 00 00
       0.0 0.0 0.0 0.0
000370 00 00 00 00 00 00 00 00 00 00 00 00 00 00 00 00
       0.0 0.0 0.0 0.0
000380 00 00 00 00 00 00 00 00 38 9f a9 3b 00 00 00 00
       0.0 0.0 0.005176451 0.0
000390 00 00 00 00 4c 10 1d 2a 00 00 00 00 00 00 00 00
       0.0 1.3950055e-13 0.0 0.0
0003a0 28 41 61 b7 00 00 00 00 00 00 00 00 68 e3 51 b3
       -1.3426215e-05 0.0 0.0 -4.886843e-08
0003b0 00 00 00 00 00 00 00 00 00 00 00 00 00 00 00 00
       0.0 0.0 0.0 0.0
0003c0 5a 98 92 8d 77 8e e1 9f 00 00 00 00 ae 98 b6 3b
       -9.034622e-31 -9.5526895e-20 0.0 0.0055724
0003d0 00 00 00 00 00 00 00 00 ea d0 75 1b 00 00 00 00
       0.0 0.0 2.0333429e-22 0.0
0003e0 00 00 00 00 00 00 00 00 00 00 00 00 00 00 00 00
       0.0 0.0 0.0 0.0
0003f0 00 00 00 00 00 00 00 00 00 00 00 00 00 00 00 00
       0.0 0.0 0.0 0.0

lstm.weight_ih_l1 f4 [256, 64]
000000 f0 87 1b 3d a7 b8 c5 bd b8 63 89 3c 0e 8a dc bd
       0.037971437 -0.0965436 0.016771182 -0.10768519
000010 d4 ff 59 bd 1b 26 db bd 90 29 09 be cf b2 d5 3d
       -0.053222492 -0.107006274 -0.13394761 0.10434496
000020 06 bb a7 3d 20 79 15 bc c0 62 f0 38 54 2b 8a 3d
       0.08189969 -0.009123117 0.000114624854 0.067465454
000030 93 98 ab bd 58 61 a5 3d 06 db 44 bc c8 99 01 bd
       -0.083787106 0.080752075 -0.01201511 -0.031640798
000040 d1 92 ac 3c c8 8f fc 3d 02 58 ed bd fc 51 e2 bc
       0.021066101 0.123321116 -0.11589052 -0.027626984
000050 20 19 d0 3b 0e 70 aa 3d 2c 89 b8 3d 8d a7 00 be
       0.0063506514 0.08322154 0.090105385 -0.12563916
000060 44 19 6b 3d ed 04 e5 bd 7e 05 ea bd a6 ed fa 3d
       0.057397142 -0.1118258 -0.11426829 0.12252359
000070 d1 dc fb bd d8 6f d5 3d 66 cb bc bd 9c e8 95 3d
       -0.12297977 0.10421723 -0.09218483 0.07319757
000080 70 b6 82 3c 10 d4 71 bc 60 3f 51 3d 5e 0c c8 3d
       0.015956134 -0.014760032 0.05108583 0.09767984
000090 ee 78 79 bd 08 5e b1 3d 68 dc 96 bd ad 59 f8 bd
       -0.060906343 0.08660513 -0.07366258 -0.12126479
0000a0 aa 40 87 bb 98 6d 40 3d 9c 71 86 3d 6f 4b 1a bd
       -0.0041275816 0.046979517 0.06564638 -0.037669595
0000b0 60 83 df 3c a0 58 fc bc f3 8b f6 ba de 21 6f bc
       0.027284324 -0.030803978 -0.0018810019 -0.014595477
0000c0 5e 5c d9 bd bc 7d eb bc 72 0d c8 bd 99 26 da 3d
       -0.10613321 -0.028746478 -0.097681895 0.10651893
0000d0 cd 4c 85 3d ff 27 f4 bd ac ae 0b be 90 05 24 bd
       0.06508789 -0.11921691 -0.13640851 -0.040044367
0000e0 07 2b fa bd 5a 03 a1 3d 76 bf 00 3e 92 90 f2 bd
       -0.12215238 0.078619674 0.12573037 -0.11843981
0000f0 60 ea de bb 8d 76 f7 3b 58 91 97 3c f7 3f d4 bd
       -0.006802842 0.007551974 0.018501922 -0.10363763
000100 0e ef 22 3d b2 8c 37 bd 8b 77 83 bd 9a 2d a1 bd
       0.03977876 -0.044811912 -0.064192854 -0.07870026
000110 97 a5 9b 3d 7c 4f 2c 3c 0c 57 8e 3d f4 29 91 3d
       0.07599943 0.010516997 0.069501966 0.0708808
000120 6c 6f 10 3d b0 24 f6 3c ec 41 96 bd 14 c1 27 3d
       0.03526251 0.03004679 -0.07336792 0.040955618
000130 f0 54 da 3d 9c a9 58 3d 2a 30 76 3d c8 cf b2 bc
       0.10660732 0.052896127 0.060104527 -0.021827593
000140 8f a4 04 3d 2e ae 86 3d e7 97 11 3d 4c 14 0b bd
       0.032383498 0.06576191 0.035545256 -0.033954903
000150 b8 b8 c7 3d 8b 38 f6 3d c8 0b 99 3c f7 c6 c8 bc
       0.09752029 0.120225035 0.018682376 -0.024508936
000160 f8 ef 9e 3d c0 f7 c8 3c 7d ac a8 bd e6 43 d7 bd
       0.07760614 0.024532199 -0.082360245 -0.105109975
000170 f0 88 d5 3d e0 52 3b bd 16 90 0f bd 3c 08 03 be
       0.104265094 -0.045733333 -0.03504952 -0.1279611
000180 00 41 cc 3d 6b 11 b0 bd 29 ef c5 3d 40 6e 8f bd
       0.09973335 -0.08597072 0.09664757 -0.070034504
000190 ae 51 c9 3d 9e f6 b2 3d bc 87 4c 3d 38 c1 f2 3d
       0.09830032 0.08738445 0.049934134 0.1185326
0001a0 64 18 77 bc 5a 41 ad bd 59 5a a7 bd a2 00 a5 3d
       -0.015081499 -0.084597304 -0.08171529 0.08056761
0001b0 e2 db e4 bd 70 d0 0b bd 9f 17 c7 bd 77 71 e5 bd
       -0.11174752 -0.03413433 -0.09721302 -0.11203282
0001c0 98 05 a9 bd 90 4c d3 bc 6e 92 1d bd 40 3a 0a 3d
       -0.0825302 -0.025793344 -0.038469724 0.033746958
0001d0 ae ce 92 bc 80 ad 5b 3c 40 5b c7 3b 60 22 ca bd
       -0.017920818 0.013408065 0.006083876 -0.09869838
0001e0 c4 b2 a8 bc 80 2a cc 3a 2a 44 7d 3c fa cf 89 bd
       -0.020593055 0.0015576631 0.015458146 -0.067291215
0001f0 a4 7d 39 3d 0e ec 4b 3a fa a4 a9 3d d8 84 46 bc
       0.045285836 0.00077790103 0.0828342 -0.012116633
000200 91 34 ba bc d4 ae c5 3d 94 ad 88 3d 26 f1 a2 bd
       -0.022730144 0.096524864 0.066737324 -0.07956152
000210 85 02 82 3d b0 b0 ea 3d 29 c0 9f 3d 7e 47 92 3d
       0.06348137 0.11459482 0.078003235 0.07142542
000220 78 80 02 3e 0c c4 cd 3d 3f 3e fb bd b0 da bb bc
       0.1274432 0.100471586 -0.12267732 -0.022931427
000230 f0 8a 77 3c 58 8e b0 3d 13 24 94 bd e2 1a 16 bd
       0.015108809 0.086209 -0.07233443 -0.03664673
000240 8c f5 d2 3d 22 46 53 bd cd 09 f7 bc e2 cb ae 3d
       0.103007406 -0.051580556 -0.03015604 0.08534981
000250 30 04 af bc 5f 3d bc bc 3d 27 98 bd b3 cd df 3d
       -0.021364301 -0.022978483 -0.07429359 0.10927906
000260 9a fc 0b 3e e8 96 ea bc 52 b8 8b bd 84 2b 08 be
       0.13670579 -0.02863641 -0.06822266 -0.1329785
000270 38 e9 b1 3d 53 9d d0 3d 66 66 31 bd ff 3e d4 bd
       0.08687061 0.10186257 -0.043310545 -0.10363578
000280 a8 64 78 bd 7a 84 8d bd cc e0 f0 3d c6 f0 c3 3d
       -0.06064287 -0.069100335 0.117616266 0.09567408
000290 ba af 96 3d e8 41 bf bc 82 c7 39 bd 80 b7 05 3b
       0.07357736 -0.023346856 -0.04535628 0.0020403564
0002a0 15 0c 07 3e 00 1a 4f 3a 88 34 c1 3d e6 7b f6 bd
       0.13188203 0.00079002976 0.09433848 -0.120353505
0002b0 a0 cc a1 bc 37 b6 0a be 2f c4 a1 3d 47 b6 d1 3d
       -0.019750893 -0.13546072 0.07898747 0.10239845
0002c0 50 0d c8 bd 9a 20 48 bd d2 8b 8d 3d 01 46 97 bd
       -0.09768164 -0.048859216 0.06911434 -0.07386399
0002d0 46 cd a0 3d 80 76 d0 bc d0 b8 30 3d c8 38 99 bc
       0.07851653 -0.02544713 0.043145 -0.018703833
0002e0 8c 3a 3e 3d 70 59 2c 3d b7 f3 ce bd 01 94 04 bd
       0.046442553 0.04207748 -0.10105079 -0.03236771
0002f0 ec 44 c0 3d 39 52 6f 3d 40 3d 8f 3b c6 a7 8e 3d
       0.09388146 0.058428023 0.0043713152 0.06965594
000300 96 e4 a3 bd 8a 4b ce bd 44 9d f1 3d 0a 11 c2 3d
       -0.08002584 -0.10073002 0.11797574 0.09475906
000310 b0 08 7f 3b 03 0d b2 3d b7 55 0e 3e e8 bc 86 bd
       0.003891509 0.08693888 0.13899885 -0.06579
000320 f0 4e fd 3c 70 76 57 bd e6 78 df bd fc 87 1b 3d
       0.03092143 -0.052603185 -0.109117314 0.03797148
000330 30 d5 89 3c 3a cb 88 bd 55 3e a5 bd 42 a2 0a be
       0.016825289 -0.066793874 -0.080685295 -0.13538459
000340 f9 d5 44 3d dc 91 17 3d 3e a3 bb 3c 00 f7 d6 3b
       0.048055623 0.037004337 0.022904988 0.0065602064
000350 42 ff b8 bd 6e 64 de bd b0 19 21 bc e4 21 03 3e
       -0.090330616 -0.10858999 -0.0098327845 0.12805897
000360 b8 6c 93 bc ec b9 ee 3d aa 30 0b be de 01 06 3e
       -0.017996177 0.116565555 -0.13592783 0.1308665
000370 b8 b0 ab bc ad 61 b1 bd a2 67 5d bd ce a5 04 be
       -0.02095829 -0.08661208 -0.05405391 -0.12953874
000380 e8 21 d1 bd 3c 37 d7 3d b8 bb 6d bd 32 74 dd bd
       -0.10211545 0.10508582 -0.05804035 -0.10813178
000390 58 ef e6 3d c9 8d 07 be 00 28 26 3a 74 22 65 bd
       0.1127612 -0.1323768 0.0006338358 -0.05594106
0003a0 c2 f8 eb 3d 17 ef d9 bd fa 7e 90 3d bb da f1 bd
       0.11522056 -0.10641306 0.07055469 -0.11809298
0003b0 06 cd de 3d ac 76 e0 bd 5f 42 a0 bd 71 d3 e9 bd
       0.10878949 -0.10960135 -0.07825159 -0.114172824
0003c0 84 a0 be 3d 04 0a f1 3d 3b a5 d4 3d f9 49 e5 bd
       0.0930796 0.117694885 0.10383078 -0.1119575
0003d0 62 c0 90 3d 54 d2 8d 3d d0 e2 f9 3c 34 ca 67 3d
       0.07067944 0.069248825 0.03050366 0.05658932
0003e0 88 3e 28 3d 48 e9 52 3d d0 47 96 3d 1a 3e 82 bc
       0.04107526 0.051492006 0.07337916 -0.015898753
0003f0 42 eb da bd 8d 7c 8b bd 7a 70 d0 bd 7a 0e eb 3d
       -0.10689403 -0.068108656 -0.10177703 0.114773706

lstm.weight_hh_l1 f4 [256, 64]
000000 db 52 be bd df 10 bf 3d de 89 4f bd e6 0a de bd
       -0.09293147 0.0932939 -0.05066859 -0.108419225
000010 bd 58 a9 bc b9 17 8c bd a7 ee ee bd 5f 6b fd bb
       -0.020672197 -0.06840462 -0.11666613 -0.007733747
000020 c5 ae c6 bc 96 fc a8 bd 5b c7 a3 3d e0 a4 18 3d
       -0.024253258 -0.08251302 0.079970084 0.037266612
000030 70 dd 9f 3d c0 ad 7b bd f6 0b fd 3a 7b d8 42 3c
       0.07805908 -0.061444998 0.0019305933 0.011892433
000040 02 5a a8 3d f4 50 fa bd a5 d0 8d 3d cc 1d 93 bd
       0.08220293 -0.12222472 0.069245614 -0.07183418
000050 f9 ec a2 bd 0f 9d 92 3c 2c f3 f6 3d 0d e3 f7 bd
       -0.07955355 0.017897157 0.120581 -0.121038534
000060 eb db 41 bd 55 4c af bd ac 31 c0 3d be 77 7f 3d
       -0.04732887 -0.08559481 0.09384474 0.062370054
000070 41 62 67 bd 30 1d c8 3d a7 ab 09 3e cc 5f 0e 3c
       -0.056490187 0.09771192 0.13444386 0.008689832
000080 02 f7 0d 3e 1f 70 d1 3c 14 7d 93 bd 3c ae cc bd
       0.13863757 0.025566159 -0.07201591 -0.0999417
000090 60 b2 0c be 53 e3 de 3d ec 1d d4 bd 33 85 39 3d
       -0.1373992 0.108832024 -0.1035727 0.045293044
0000a0 d2 d6 92 bd fd 41 c2 3d c4 13 f3 bd ba ef ab bd
       -0.0716988 0.094852425 -0.11869004 -0.083953336
0000b0 b7 18 fd bd e1 29 09 3d dc 4a 04 bd d1 b8 e3 bb
       -0.123582296 0.033487204 -0.032297954 -0.006949522
0000c0 79 80 d8 bd f9 71 e3 3d 4a 63 63 bd 5f f2 82 3d
       -0.10571379 0.11105723 -0.05551461 0.06393885
0000d0 cb 3b 51 bd 5e 78 ad bd a8 06 ca 3d 53 68 0a 3e
       -0.051082414 -0.08470224 0.09864551 0.13516359
0000e0 63 e2 f3 bc d1 ba d9 3d d6 c0 e8 bd 4b ab 9d bc
       -0.029771036 0.106313355 -0.113649055 -0.019246718
0000f0 f0 1a f3 3d 28 ce db 3c 8b 76 c3 bd 20 ac ef 3d
       0.11870372 0.026831701 -0.09544095 0.11702752
000100 b8 41 a6 bd 6d 9e d2 bd 26 b1 37 3d 5f bf 95 3d
       -0.081180036 -0.102841236 0.044846676 0.07311892
000110 3b ad b0 bd cb 52 0e bc 8d b0 c8 bc 3c d6 d6 3d
       -0.08626791 -0.008686732 -0.024498248 0.10490081
000120 fc 1c 6f 3c c5 4e ea bd 71 15 fb 3d 19 46 bc bd
       0.014594313 -0.11440805 0.12259949 -0.091930576
000130 4c 2a 01 3e 4b 26 92 bd c1 57 63 3d d8 e2 4f bc
       0.12613791 -0.0713621 0.05550361 -0.012688361
000140 f6 ae b7 3a fc 83 55 bd 5f ed a1 3d 9c 82 e3 3c
       0.0014013934 -0.052127823 0.07906603 0.02777224
000150 8e 17 2c bd ca 4f df bd 0b 3e 93 3d ec a1 b0 bd
       -0.04201465 -0.109038904 0.07189568 -0.08624634
000160 4c ff 94 bc 92 f9 ba bd 0b c5 e2 bd 94 aa c6 3d
       -0.018188141 -0.09129633 -0.11072739 0.09700504
000170 fd b6 4b 3d 87 16 a1 3d f6 49 cf bb 7b ac 0c be
       0.049735058 0.07865625 -0.0063259555 -0.13737671
000180 69 ce 03 bb 04 ff 53 3c 36 cf 8d bd 16 6a f5 bd
       -0.0020112044 0.012939218 -0.06924288 -0.11983125
000190 5f 99 c6 3d 24 54 90 3d 26 91 93 bc 25 b1 bf 3b
       0.09697222 0.070472986 -0.018013548 0.0058499747
0001a0 33 89 b7 3d 86 d5 9a bd 60 e0 f2 3d 09 6b be 3d
       0.089617155 -0.075602576 0.118592024 0.09297759
0001b0 19 d2 c0 bd 1f bf 80 3d e1 28 5a 3c 14 f2 e4 3b
       -0.09415073 0.062864535 0.01331541 0.006986866
0001c0 ec 0b d2 bd 5c a1 f9 bd f1 56 19 3c 41 a0 05 3d
       -0.1025618 -0.1218898 0.009359107 0.032623533
0001d0 4b 6a dc bd 46 42 dc bd 02 bd c5 bd e9 79 a1 bd
       -0.10762461 -0.10754828 -0.09655191 -0.07884581
0001e0 ad c6 14 3d b0 e6 a1 3d 7f c5 17 bd 2c 69 7b 3d
       0.036322284 0.07905328 -0.03705358 0.061379597
0001f0 ad 97 b9 3d 97 cf dd bd 9a bb df bd ec 40 10 3e
       0.09062133 -0.1083061 -0.10924454 0.14087266
000200 3e f4 ef bd cd c4 43 3d 49 4d 4c 3d 1c 7e 69 3d
       -0.117165074 0.047795106 0.049878392 0.057005033
000210 2f 6f e6 3d a2 bc 04 3e 61 01 dc bd 09 d6 56 3d
       0.11251675 0.12962583 -0.107424505 0.052450214
000220 71 3b af bd 02 56 cb 3d bd c3 58 bd 6e bf 83 bd
       -0.085562594 0.09928514 -0.052921046 -0.06432997
000230 ba ce c6 3d 1e dc a5 bc 1d 54 91 bd 6d 01 df 3d
       0.09707399 -0.020246562 -0.070961215 0.10888944
000240 47 a1 ff bc 7e 2e a7 bd dc 57 e3 bd 80 4e 2c 3d
       -0.031204833 -0.081631646 -0.11100742 0.04206705
000250 c5 23 4a bd 7c 6c b4 bc 31 19 16 bd 92 92 a6 3c
       -0.04935052 -0.022024386 -0.03664512 0.020333562
000260 28 e4 df bd 97 51 2a 3d 42 6d 06 be d8 f5 02 3e
       -0.10932189 0.041581716 -0.13127616 0.12789094
000270 f9 7b c0 3c c7 93 c2 bd 01 d7 74 bd 58 4a 30 bd
       0.023496615 -0.095008425 -0.059775356 -0.04303965
000280 6a 60 ce bd ec 40 a1 bd fd bb 42 bd f7 a7 83 3d
       -0.10076983 -0.07873711 -0.04754256 0.06428521
000290 21 29 2a bd aa 7b 0b be 8b 65 95 bd 72 ae c4 bc
       -0.04154313 -0.13621393 -0.072947584 -0.024008963
0002a0 88 74 04 be c8 39 61 bd e3 07 00 bd 21 0b f3 3d
       -0.12935078 -0.054986745 -0.03125752 0.11867357
0002b0 85 1e a3 3a 7c d1 57 3d 53 22 6b 3d 48 d0 84 bb
       0.0012445009 0.052690014 0.05740578 -0.0040531494
0002c0 4b 95 07 3e 5f ab 06 3e d9 3b 17 bd b0 60 c6 3d
       0.13240544 0.1315131 -0.03692231 0.096864104
0002d0 bd af 8b 3d 90 b3 d3 bd 5b b4 0a be c6 f2 08 3d
       0.06820629 -0.10336983 -0.13545363 0.03343465
0002e0 37 35 95 bd 73 3a f4 bd a8 bf fb bc ed 65 26 bd
       -0.072855406 -0.11925211 -0.030731037 -0.040624548
0002f0 9c 77 c5 bc 86 9a da 3c 3c 9d e0 bd 0a 44 30 bc
       -0.024104886 0.02668501 -0.1096749 -0.010758409
000300 d5 38 b1 bd ff 2c 7c bd 19 22 72 3b f6 fc e1 bc
       -0.08653418 -0.06156635 0.0036946593 -0.027586441
000310 6e ad d1 3d b7 8c fb bd 60 e8 d1 3c 05 99 3d bd
       0.10238157 -0.122826986 0.0256235 -0.04628851
000320 f2 8f b0 3d 8a 86 f3 3c 92 d1 e8 bd 82 07 c4 bd
       0.086212054 0.02972724 -0.11368097 -0.095717445
000330 57 b5 fc bd 5e 25 6e bd d1 00 90 bd 18 31 01 be
       -0.12339275 -0.058141105 -0.07031406 -0.12616384
000340 35 76 28 bd 86 fd 05 bd 97 32 45 3d 00 b6 00 be
       -0.041128356 -0.032712482 0.04814395 -0.12569427
000350 45 36 ce 3d 83 bb bc bd 8d 3a 96 3d 67 aa e4 3d
       0.10068945 -0.092154525 0.073353864 0.11165314
000360 20 fb dd bd 55 b8 3c bc cc fd ad bd 97 af 94 bd
       -0.10838914 -0.011518558 -0.084956735 -0.072600536
000370 42 a4 ec bd 66 f1 92 bc c5 4c f8 3d cf a9 85 3d
       -0.11554767 -0.017937373 0.121240176 0.06526529
000380 81 9e 81 3d a3 a3 96 bd c4 2e d1 bb 75 e2 d4 bd
       0.0632906 -0.0735543 -0.0063837487 -0.10394756
000390 1a 82 e5 bd ad da e2 bd 93 11 eb bc 6f bf 81 3c
       -0.112064555 -0.11076865 -0.028694903 0.015838353
0003a0 11 f9 0c 3d 86 21 3c 3d 33 71 47 bd c4 76 99 3d
       0.034417216 0.045930408 -0.04869194 0.07493356
0003b0 60 f3 2a 3d 39 b1 82 3d 98 31 d1 3d 3a b4 a2 3c
       0.041736007 0.06381459 0.102145374 0.01986133
0003c0 53 cd f0 bc f2 12 15 be a9 b4 cd bd ee 92 7f bd
       -0.029394781 -0.14558008 -0.10044224 -0.062395982
0003d0 a7 69 b7 bd ed 7f 13 3d 57 be 8a 3d d9 bc 00 be
       -0.089556985 0.03601067 0.06774586 -0.1257204
0003e0 1b d1 f4 3d a0 88 d6 3d 77 c8 bd 3c 1b a0 e4 3d
       0.11953946 0.10475278 0.023166878 0.1116335
0003f0 aa 7d 60 bd 98 5c 99 3d f8 2a 86 3d 7e bb 45 3d
       -0.054807343 0.07488364 0.065511644 0.04827451

lstm.bias_ih_l1 f4 [256]
000000 66 5f 0e bc 69 2e 03 bc b1 cc 29 bb 63 07 26 3c
       -0.008689737 -0.0080066705 -0.002590936 0.010133597
000010 26 c8 25 3c 26 9e 1c 3c a8 c7 16 bc d3 83 f6 bb
       0.01011852 0.00955919 -0.009202875 -0.007523039
000020 93 c4 25 3c a8 ae 1f 3c 46 2e ef bb 5b b1 e1 3b
       0.010117668 0.009746231 -0.0072992174 0.0068875975
000030 f3 1f 26 3c 47 7b d9 bb a0 57 07 bc b7 c6 18 bc
       0.010139453 -0.0066370103 -0.0082606375 -0.009324721
000040 35 6a 22 3c d9 f2 25 3c 34 87 87 bb 7a 44 cf b9
       0.009913017 0.0101287 -0.0041359905 -0.00039533136
000050 f8 c9 8f 3b cf 5f 22 3c 80 f6 25 3c 29 22 26 3c
       0.00438809 0.009910538 0.010129571 0.01013998
000060 3f 60 06 bc 1b 29 1d bc 0e b2 0b bc f4 1d 24 3c
       -0.008201658 -0.00959232 -0.008526338 0.010016907
000070 ac 42 08 bc ca 24 1e 3c 7b 75 23 3c 55 c8 17 3c
       -0.008316677 0.009652326 0.00997674 0.0092640715
000080 9e 01 d1 3b 16 b0 1a 3c 68 4f 25 3c 5c 43 22 3c
       0.0063783666 0.009441396 0.010089733 0.009903755
000090 52 2e 21 3c 0e 71 26 3c b8 d2 0e bc fd 21 14 bc
       0.009837704 0.01015879 -0.008717231 -0.009041307
0000a0 62 41 83 3b d6 dd 25 3c 20 15 21 3c 90 6c 26 3c
       0.004005597 0.010123691 0.009831697 0.010157719
0000b0 a7 16 1f bc fb 81 18 3c 13 ac 25 3c 78 8a c6 ba
       -0.009709991 0.0093083335 0.0101118265 -0.0015147468
0000c0 46 5e c2 3b e6 ab 1e bc 32 91 c3 bb 1e c9 21 3c
       0.0059316484 -0.0096845385 -0.0059682364 0.00987461
0000d0 11 b7 25 3c 38 6e 20 3c 2f 9b 24 3c e2 9f fd bb
       0.010114447 0.009791903 0.010046764 -0.007740007
0000e0 3c 2f 22 3c 88 d9 0e bc 56 39 19 bc ce 3a 21 3c
       0.009898957 -0.008718856 -0.009352049 0.00984068
0000f0 63 72 25 3c a6 cb 19 bc 17 3d 06 bc 26 c4 ef bb
       0.010098073 -0.0093869325 -0.008193276 -0.007317084
000100 21 81 0b bc d3 d7 06 bc fa 95 02 bb e1 01 26 3c
       -0.008514673 -0.008230167 -0.0019925819 0.010132284
000110 72 5c 26 3c 42 89 1d 3c d8 27 17 bc 8e 30 03 bc
       0.010153877 0.009615244 -0.009225808 -0.008007182
000120 fe 82 25 3c 55 a5 1d 3c 30 21 ed bb 62 1c 9c 3a
       0.010102032 0.009621938 -0.0072366223 0.0011910314
000130 0a 0f 26 3c 43 53 c6 bb 89 09 01 bc fb ae 13 bc
       0.0101354215 -0.006052406 -0.0078758085 -0.009013887
000140 59 ee 20 3c 16 6f 26 3c 90 f5 84 bb df 6d ef 3b
       0.0098224515 0.010158321 -0.0040575936 0.007306799
000150 e6 68 a0 3b 64 cc 24 3c b4 94 25 3c 4b 5f 26 3c
       0.0048953174 0.010058496 0.010106254 0.010154556
000160 1d ac 05 bc bc ec 1a bc 16 74 09 bc 38 43 23 3c
       -0.008158711 -0.009455856 -0.008389493 0.009964757
000170 3f 7f 04 bc 20 49 21 3c c0 48 22 3c 89 c0 dc 3b
       -0.008086978 0.0098440945 0.00990504 0.006736819
000180 0f 07 17 3c a9 85 1e 3c 9a ef 24 3c 78 ec 24 3c
       0.0092179915 0.009675422 0.010066891 0.010066144
000190 bc b1 1e 3c c3 5a 26 3c 5e b2 0f bc 76 8e 12 bc
       0.00968593 0.010153475 -0.008770553 -0.008945098
0001a0 8f fb 64 3b ff 3f 25 3c 5d dd 21 3c d0 3c 26 3c
       0.003493998 0.010086059 0.009879437 0.010146335
0001b0 68 51 1c bc 1d 48 1d 3c a8 12 25 3c 9b 79 4a 3a
       -0.009540893 0.009599713 0.010075249 0.0007723809
0001c0 76 80 cf 3b a1 d1 1b bc 6d 23 d8 bb 9c eb 20 3c
       0.0063324524 -0.009510429 -0.00659602 0.009821799
0001d0 43 1f 25 3c 85 f3 21 3c f4 b9 23 3c a4 32 ff bb
       0.010078254 0.00988472 0.009993065 -0.0077880193
0001e0 57 30 22 3c e7 98 0e bc c8 da 13 bc cd ed 22 3c
       0.00989922 -0.008703447 -0.0090243295 0.009944391
0001f0 aa 56 25 3c 62 49 1a bc 1f c1 06 bc 18 84 01 bc
       0.010091463 -0.00941691 -0.008224755 -0.007905029
000200 0f 6d 21 3c 74 94 1e 3c 15 28 21 bc 1c bf 24 3c
       0.009852662 0.009678949 -0.009836216 0.01005533
000210 a4 d1 24 3c 17 c8 24 bc 97 63 1c bc 8e ea f1 3b
       0.010059748 -0.010057471 -0.009545228 0.0073826974
000220 0f fe 25 bc 42 d1 23 bc 00 02 20 3c 4c d8 21 bc
       -0.010131373 -0.009998621 0.009766102 -0.009878229
000230 3f 82 24 3c 3d bc 19 3c 7a 55 1f 3c ad 7d 1e bc
       0.010040819 0.009383258 0.009724969 -0.009673518
000240 9b e6 25 3c 56 41 24 bc 9b d5 20 3c 91 75 25 3c
       0.010125781 -0.010025343 0.0098165525 0.010098831
000250 47 82 96 bb 5e 89 25 3c 99 43 25 bc e2 fa 25 3c
       -0.004593167 0.010103552 -0.010086917 0.010130616
000260 ff 23 1f 3c 85 b5 21 3c 8a e9 21 bc fd 96 25 bc
       0.009713172 0.009869938 -0.00988234 -0.010106799
000270 58 47 06 bc a3 5f 25 bc 67 74 26 bc 8c d2 25 3c
       -0.008195721 -0.010093602 -0.010159588 0.010120999
000280 ba 9a 24 bc 60 d2 25 3c 35 e5 23 bc e1 a1 24 3c
       -0.010046655 0.010120958 -0.010003378 0.010048361
000290 af 48 24 3c 48 2a 26 3c 3d 3e 1e 3c cc 04 0e bc
       0.010027095 0.010141917 0.009658393 -0.008668136
0002a0 2f 1f a9 3b 57 e1 21 bc 91 f6 25 3c cc cd 25 3c
       0.005161188 -0.009880385 0.010129587 0.010119867
0002b0 9b bb 21 3c f3 d9 25 bc 27 74 26 3c 3f 1b 21 3c
       0.009871389 -0.010122764 0.010159529 0.009833156
0002c0 be fa ba 3b 5e b2 1f 3c 57 a4 20 bc 8a 14 25 bc
       0.0057061603 0.009747116 -0.009804807 -0.010075698
0002d0 58 a6 25 bc 62 2e 26 bc 43 49 26 3c 5d bb 1f 3c
       -0.01011046 -0.010142894 0.010149303 0.009749261
0002e0 3c 6c 25 bc de 8d 22 3c 28 04 1e bc b5 eb 24 bc
       -0.010096606 0.009921519 -0.009644546 -0.010065963
0002f0 f4 cd 25 bc bd ec 22 3c dc 4f 1d 3c b5 9e e5 3b
       -0.010119904 0.009944138 0.0096015595 0.0070074447
000300 4e 4d 0c bc 1b 3f 03 bc 1f ab 35 bb 06 cd 25 3c
       -0.008563353 -0.008010651 -0.0027720404 0.010119682
000310 95 76 25 3c 4e 0a 1c 3c 4f 6e 12 bc 92 10 f5 bb
       0.010099073 0.009523941 -0.008937432 -0.007478782
000320 d5 a4 25 3c 73 36 1e 3c 02 21 f0 bb 0c 51 d4 3b
       0.0101101 0.009656536 -0.0073281536 0.006479388
000330 ed d3 25 3c 72 b9 db bb 4b f4 07 bc e7 40 17 bc
       0.010121328 -0.0067054564 -0.00829799 -0.0092317825
000340 19 a0 22 3c 75 7f 26 3c 11 11 8e bb 24 b2 96 b9
       0.009925866 0.010162224 -0.0043355306 -0.00028742955
000350 d6 59 8e 3b 14 2d 22 3c 00 f6 25 3c 8b 07 26 3c
       0.0043442054 0.009898443 0.010129452 0.010133634
000360 38 43 05 bc 83 61 1b bc ac 69 09 bc de 00 24 3c
       -0.008133702 -0.009483698 -0.008387011 0.010009972
000370 82 37 06 bc 48 26 1e 3c 58 db 22 3c 41 69 14 3c
       -0.008191945 0.009652682 0.009939991 0.009058298
000380 2b cc af 3b 0d c9 1a 3c d8 af 24 3c 7e 6e 22 3c
       0.005364915 0.009447348 0.01005169 0.009914039
000390 51 b5 21 3c 2b 6e 26 3c 6d ac 0b bc 79 53 12 bc
       0.009869889 0.010158102 -0.008524996 -0.008931034
0003a0 cc b2 82 3b 70 a8 25 3c 74 19 21 3c 10 2f 26 3c
       0.0039885994 0.010110959 0.009832729 0.0101430565
0003b0 58 60 1f bc 8e d8 19 3c c0 4f 25 3c c2 d9 e0 ba
       -0.00972756 0.00939001 0.010089815 -0.0017154741
0003c0 09 8c be 3b 69 81 1d bc 9a ab c3 bb 5e 9e 21 3c
       0.0058150333 -0.009613373 -0.0059713842 0.009864418
0003d0 d0 94 25 3c 21 20 20 3c 11 98 24 3c f7 12 fe bb
       0.01010628 0.009773285 0.010046021 -0.0077537256
0003e0 16 02 21 3c ea f6 0c bc bd ff 14 bc 5a a5 20 3c
       0.0098271575 -0.008603791 -0.009094176 0.009805048
0003f0 51 a4 25 3c 1a 77 1a bc d3 1b 04 bc 8c 16 f0 bb
       0.010109977 -0.00942781 -0.008063274 -0.0073269065
