test_model_save/tcn_model.pt (torch_old, 95183 bytes, 79 tensors)

tcn.layers.0.conv1.weight f4 [16, 3, 3]
0	0x3e92a578	0.28641868
1	0xbe3b626c	-0.18299264
2	0x3e67847d	0.22609134
3	0xbda6f0e2	-0.081514135
4	0x3e0aa371	0.1353891
5	0x3e8487a6	0.25884742
6	0x3d9a21ab	0.07525953
7	0x3e66128f	0.22468017
8	0x3e5cfef2	0.21581629
9	0x3ea1b937	0.3158662
10	0xbe9ebeb3	-0.31004867
11	0x3e5b3678	0.21407497
12	0x3e7a3c4c	0.24437064
13	0xbcb1c909	-0.021702306
14	0xbc84efe3	-0.016227668
15	0xbe80913d	-0.25110808
16	0x3c06dcd3	0.0082313595
17	0xbdd5d294	-0.10440555
18	0x3e0dba95	0.13840707
19	0x3e8b5776	0.27215165
20	0xbdc50090	-0.09619248
21	0x3e9f2b8b	0.31087908
22	0xbe4d1f5f	-0.20031498
23	0xbe670f90	-0.2256453
24	0xbe7defd6	-0.24798521
25	0xbe9ab2ff	-0.30214688
26	0xbd95cbfa	-0.07314296
27	0x3e8d27c2	0.27569395
28	0x3e1d371c	0.15353054
29	0x3e94d4fa	0.29068738
30	0x3e02e8e8	0.12784159
31	0x3e24a7b4	0.16079599
32	0x3e98f047	0.29870817
33	0x3e91491f	0.283761
34	0xbe8161fa	-0.25270063
35	0xbe89b676	-0.2689702
36	0x3e6d9583	0.23201565
37	0xbe819161	-0.25306228
38	0xbe6e5f7a	-0.23278609
39	0xbe3bb258	-0.18329751
40	0x3d4a9c6b	0.049465578
41	0x3e240e33	0.16021042
42	0xbe731ed9	-0.23742236
43	0xbe6ff5ae	-0.23433563
44	0x3e7c3101	0.24628069
45	0x3e9bba92	0.3041578
46	0x3d9ef5a8	0.07761699
47	0x3c29d17e	0.010364888
48	0xbea00b81	-0.31258777
49	0x3e2106d6	0.15725264
50	0x3e91b914	0.28461516
51	0xbead83e8	-0.338897
52	0xb9e7599e	-0.00044126523
53	0xbc79cd30	-0.015246674
54	0xbe0a108f	-0.13482879
55	0xbdf3df26	-0.119077966
56	0xbe6f26a6	-0.23354587
57	0xbe560930	-0.20901942
58	0xbe4c24e5	-0.19935949
59	0x3e94c985	0.29059997
60	0xbe0acbd7	-0.13554321
61	0x3d70999f	0.058740254
62	0xbe8bbf1c	-0.27294242
63	0x3daf018e	0.085452184
64	0xbe9bd6a1	-0.30437186
65	0x3e99d8f8	0.30048347
66	0x3e464cb3	0.19365196
67	0xbe63d849	-0.22250475
68	0x3e0ba21a	0.13636056
69	0xbe61aaa9	-0.22037758
70	0x3cb5166f	0.022105424
71	0xbde638bd	-0.11241291
72	0x3d2cb6e5	0.04216661
73	0xbead0424	-0.33792222
74	0xbe47c88d	-0.19510098
75	0x3e25c3ae	0.16187927
76	0x3e1fa27e	0.1558933
77	0x3e16550a	0.14680877
78	0xbe1f6dfe	-0.15569302
79	0xbdd459d3	-0.10368695
80	0x3ea04e7f	0.31309888
81	0x3e905f9a	0.28197938
82	0x3d0810d1	0.033219162
83	0x3c1dcfdd	0.009632078
84	0x3ea3de93	0.32005748
85	0xbdfd449f	-0.12366604
86	0xbc9639ce	-0.01833811
87	0xbe1ffac3	-0.15623002
88	0x3cb649d1	0.022251995
89	0x3e81a27e	0.25319284
90	0x3e4eba06	0.2018815
91	0x3e81a0c3	0.25317964
92	0xbe51f877	-0.20504938
93	0x3e7cd425	0.24690302
94	0xbdbeab5d	-0.09310029
95	0x3d808cf8	0.06276888
96	0xbe95be2d	-0.29246655
97	0xbcbb8d5a	-0.02289455
98	0xbcec0c03	-0.028814321
99	0x3e0d6ee0	0.13811827
100	0x3e0ad806	0.13558969
101	0xbd86d5c1	-0.06583739
102	0xbea349c2	-0.3189221
103	0xbe48c202	-0.19605258
104	0xbe904aef	-0.2818217
105	0x3e83e27d	0.25758734
106	0xbdbb8d14	-0.09157768
107	0xbe705e6d	-0.2347352
108	0xbde85d1e	-0.11345886
109	0xbe6d9eb7	-0.23205076
110	0xbdeb43a6	-0.11487512
111	0x3e56bc3e	0.20970246
112	0x3e81bd62	0.253398
113	0x3ea79639	0.32731798
114	0xbe3a5ef1	-0.1820028
115	0x3ce5816a	0.028015811
116	0x3e33d237	0.1756066
117	0xbe67b0de	-0.22626063
118	0xbe472b9f	-0.19450234
119	0xbe51e31c	-0.20496792
120	0xbe17f829	-0.1484076
121	0x3d02ae78	0.031904668
122	0x3e92ccdd	0.28671923
123	0xbe8f86d6	-0.2803256
124	0xbdc4ae2c	-0.09603533
125	0xbdb208ca	-0.08693083
126	0xbe1f10f2	-0.15533808
127	0x3de09b0f	0.10967075
128	0x3e84f283	0.25966272
129	0x3dcd1f3b	0.10015722
130	0xbe8c0694	-0.2734877
131	0xbe22ba36	-0.15891346
132	0xbd97a3ad	-0.074042656
133	0xbd9e1065	-0.07717971
134	0x3b5a09f1	0.0033270086
135	0xbe6dc5ef	-0.23220037
136	0xbe7811ac	-0.24225491
137	0x3ea12655	0.31474558
138	0x3d8e1ab9	0.06938691
139	0xbe052d1a	-0.13005486
140	0x3d13655e	0.035985343
141	0x3d81d057	0.06338566
142	0xbdf7c3e9	-0.12097914
143	0x3d9bf255	0.076145805

tcn.layers.0.conv1.bias f4 [16]
0	0xbe58215e	-0.21106479
1	0x3cadbb86	0.021207582
2	0xbdb3d302	-0.08780481
3	0xbd88acd6	-0.06673591
4	0xbe8f609f	-0.28003404
5	0x3e2b32b2	0.16718557
6	0xbdf25c50	-0.118340135
7	0x3e95d592	0.29264504
8	0xbe30c3b1	-0.1726215
9	0xbe61f2da	-0.22065297
10	0x3db55c2d	0.08855472
11	0x3e7fb1fe	0.24970242
12	0xbdee676f	-0.11640822
13	0x3e9aa829	0.3020642
14	0x3e36cbf2	0.17851236
15	0xbe82162e	-0.25407547

tcn.layers.0.conv2.weight f4 [16, 16, 3]
0	0xbd959452	-0.073036805
1	0xbe05bdb5	-0.13060649
2	0x3d8a906c	0.067658275
3	0xbde3ade9	-0.11117155
4	0xbcbcaa62	-0.023030464
5	0x3df0de8b	0.11761197
6	0xbe08794d	-0.13327523
7	0x3db82d9a	0.08993073
8	0xbd15a76e	-0.036536627
9	0x3de81e9b	0.113339625
10	0xbdf1f213	-0.1181375
11	0xbb168d84	-0.0022972533
12	0x3ce0d6c7	0.027446164
13	0x3d9e92bb	0.0774283
14	0x3db7fdd0	0.08983958
15	0xbcfca52f	-0.030840484
16	0xbde16bca	-0.11006887
17	0xbc8886bf	-0.016665814
18	0xbdc10b12	-0.094259396
19	0x3c2e4460	0.010636419
20	0xbd8254d6	-0.063638374
21	0x3e017d98	0.12645566
22	0x3d06522d	0.032793213
23	0xbd5134d7	-0.051075783
24	0x3dadfac3	0.084950946
25	0xbd5eb848	-0.054374963
26	0x3df9f9ec	0.12205872
27	0x3d51b09c	0.05119382
28	0x3e02bc87	0.1276723
29	0x3df6bdb5	0.120479025
30	0xbdb7aac1	-0.089681156
31	0x3dbb51ff	0.09146499
32	0xbd3effba	-0.0466306
33	0xbcac0170	-0.02099678
34	0x3def38fe	0.11680792
35	0xbe1049e5	-0.14090689
36	0x3e11c5e3	0.14235644
37	0xbca6cfe7	-0.020362807
38	0x3cb77db1	0.022398802
39	0x3de56c00	0.1120224
40	0x3d88c61d	0.06678412
41	0x3c265c8b	0.0101539
42	0xbcd638d9	-0.026150154
43	0x3c93494f	0.017979292
44	0xbd80f05e	-0.062958464
45	0x3dbd7978	0.09251684
46	0x3e03f453	0.12886171
47	0xbde5e92e	-0.11226116
48	0xbd1fb512	-0.03899104
49	0xbe061b19	-0.13096274
50	0x3de05a80	0.109547615
51	0x3e011c80	0.12608528
52	0xbb042504	-0.0020163665
53	0x3d1fd4f6	0.039021455
54	0xbd33db6d	-0.043910433
55	0xbd9867a5	-0.074416436
56	0x3e1cdf12	0.1531947
57	0x3e00f0f6	0.1259192
58	0x3df30f4c	0.11868152
59	0xbcad1649	-0.02112879
60	0x3d6fdcf8	0.05856034
61	0x3e082663	0.13295893
62	0x3d225bab	0.039638203
63	0x3d33fa7c	0.043940052
64	0xbb97c316	-0.0046314104
65	0xbd1efc23	-0.038814675
66	0xbdb1ad8f	-0.08675682
67	0x3e159bf6	0.14610276
68	0x3ddc2e27	0.1075099
69	0x3dcc1153	0.09964242
70	0x3dd2a832	0.10285987
71	0xbd313c0f	-0.043270167
72	0xbd3ef2d7	-0.04661831
73	0x3d49cfbc	0.049270377
74	0x3c7366fa	0.0148560945
75	0xbda31b3b	-0.07964178
76	0x3dd5a5f3	0.10432043
77	0xbd74dae0	-0.059779048
78	0xbd7af99b	-0.0612732
79	0x3d98a2ea	0.074529484
80	0xbb281630	-0.002564799
81	0xbd850704	-0.06495479
82	0xbd4a19dd	-0.04934107
83	0x3db4d1eb	0.08829101
84	0xbe0ddf5c	-0.13854736
85	0xbddaffe8	-0.106933415
86	0xbd825051	-0.063629754
87	0xbe079719	-0.13241233
88	0x3e096b91	0.1341994
89	0x3dfb8c33	0.122826
90	0x3dfa1020	0.12210107
91	0xba92d4b0	-0.0011202302
92	0xbd952e3f	-0.07284211
93	0xbd6a1b74	-0.057155088
94	0xbdb8929f	-0.09012341
95	0x3c93ee20	0.018057883
96	0x3da7fbf7	0.08202355
97	0xbd0ec6fa	-0.034857728
98	0x3dfc7190	0.12326348
99	0x3a093f9b	0.0005235613
100	0x3de21442	0.1103902
101	0x3e1418fa	0.14462653
102	0x3dda6232	0.106632605
103	0xbd1eb34e	-0.038745217
104	0x3d463c5e	0.048397414
105	0x3dc4a858	0.096024215
106	0xbd61a722	-0.05509103
107	0xbcb09186	-0.021553766
108	0xbd97d51e	-0.07413696
109	0xbe094130	-0.13403773
110	0xbe10faca	-0.14158168
111	0x3dcedfd5	0.10101286
112	0x3d0d3541	0.034474615
113	0x3da897f5	0.082321085
114	0x3dc5c162	0.096560255
115	0x3c8a96fd	0.0169177
116	0xbd3f1b6e	-0.04665702
117	0xbd356d49	-0.044293676
118	0x3b84651c	0.0040403735
119	0x3c96f61b	0.0184279
120	0x3dee00aa	0.116212204
121	0x3dea28b8	0.11433548
122	0x3cf4e640	0.029894948
123	0xbd2c10e9	-0.042008314
124	0x3dd0e939	0.10200734
125	0xbd97f8a0	-0.07420468
126	0x3d329589	0.04359964
127	0x3dee2e25	0.11629895
128	0xbd6cedb6	-0.057843886
129	0x3da5dc1c	0.08098623
130	0xbdaa6582	-0.08320142
131	0x3c04c0f0	0.0081026405
132	0x3e168565	0.14699323
133	0xbdacbf5c	-0.084349364
134	0x3ddad362	0.10684849
135	0x3dd4ab19	0.10384197
136	0xbdc11d9a	-0.09429474
137	0xbd71cb21	-0.05903161
138	0x3df85d72	0.12127198
139	0x3def052c	0.11670908
140	0xbdf46a1a	-0.119343
141	0x3c6f570e	0.014608158
142	0xbce48bfc	-0.027898781
143	0x3e07c2de	0.1325793
144	0x3cb4ceba	0.022071231
145	0x3c077f45	0.0082700895
146	0x3d5896df	0.052878257
147	0xbd00467d	-0.031317223
148	0xbd8baaa4	-0.068196565
149	0x3dac58c4	0.08415368
150	0x3df490bd	0.11941669
151	0xbadf35da	-0.0017029599
152	0x3d65b310	0.05607897
153	0x3e1fe98e	0.15616438
154	0x3dd772d9	0.10519952
155	0x3d8ea043	0.06964161
156	0x3db10977	0.086443834
157	0xbd6ba195	-0.057527144
158	0x3e0c36e1	0.1369281
159	0xbd124843	-0.035713445
160	0xbd0c041f	-0.034183618
161	0x3e17cf37	0.1482514
162	0xbd8f52a2	-0.06998183
163	0xbd9870f7	-0.07443421
164	0x3dfbd469	0.122963734
165	0x3dcae126	0.09906225
166	0x3db308a2	0.08741881
167	0xbdbd1390	-0.09232247
168	0xbda0c8d3	-0.07850804
169	0x3dd9005e	0.10595773
170	0xbdc22843	-0.094803356
171	0x3e007915	0.12546189
172	0x3d783813	0.06060035
173	0x3d8151d6	0.06314437
174	0xbd08ded2	-0.033415623
175	0x3d86097a	0.06544776
176	0x3dbec051	0.09314025
177	0xbe037e10	-0.12841058
178	0x3caf295e	0.02138203
179	0xbe08e765	-0.1336952
180	0x3ddc0baa	0.10744412
181	0xbd728a95	-0.059214193
182	0xbcec1ae2	-0.028821412
183	0xbdff13a4	-0.12454918
184	0xbd8b7a01	-0.0681038
185	0xbd68b819	-0.056816194
186	0x3e1a6665	0.15078123
187	0x3cb903dc	0.022584848
188	0x3d012f14	0.031539038
189	0xbd8c681e	-0.06855796
190	0x3db6217d	0.08893106
191	0xbc279cf9	-0.010230296
192	0xbdcc7bb8	-0.09984535
193	0x3e01908e	0.126528
194	0xbd63a13a	-0.05557368
195	0xbdf553b5	-0.119788565
196	0x3c220e6a	0.009891132
197	0x3d981de0	0.07427573
198	0xbdc8c124	-0.09802464
199	0xbd56e436	-0.052463733
200	0x3ced5a8f	0.028973846
201	0xbdd32180	-0.10309124
202	0xbd93369e	-0.07188152
203	0xbd72b7ca	-0.059257306
204	0xbdc141a9	-0.09436352
205	0x3d689884	0.056786075
206	0x3da05438	0.078285635
207	0x3d993d77	0.074824266
208	0x3e030301	0.12794115
209	0xbd78aa14	-0.060709074
210	0x3def462a	0.116833046
211	0xbddc084f	-0.10743772
212	0x3dfe2a84	0.12410453
213	0xbda0a1e5	-0.07843379
214	0xbc3adee2	-0.0114056785
215	0xbd86f8e6	-0.06590442
216	0xbdcd17cf	-0.10014307
217	0x3d29b6fc	0.041434273
218	0x3cc28f54	0.023749985
219	0xbddf6ead	-0.109097816
220	0x3dcd96d9	0.100385375
221	0x3de171e7	0.11008053
222	0xbdb22f5d	-0.0870044
223	0x3d9fdf82	0.078063026
224	0xbcdb652a	-0.026781637
225	0x3e0e6a15	0.13907655
226	0xbd2c248f	-0.042027052
227	0x3d7b289c	0.061318025
228	0xbd0aa027	-0.03384414
229	0x3cf65d05	0.030073652
230	0xbdb98d71	-0.09060181
231	0xbd82f299	-0.06393928
232	0xbdec9a74	-0.11552897
233	0xbdc35768	-0.09538156
234	0xbdc2ca4a	-0.0951124
235	0x3c83b41a	0.01607709
236	0xbd749a73	-0.059717607
237	0xbc78219f	-0.015144735
238	0xbdaf45a0	-0.08558202
239	0x3c60eaf4	0.013727892
240	0xbded8ff3	-0.11599722
241	0x3d30419d	0.043031324
242	0x3dd9548c	0.10611829
243	0xbdb01e15	-0.08599488
244	0xbc00ca1a	-0.007860685
245	0xbd9a62b7	-0.075383596
246	0xbcf86a77	-0.030324204
247	0x3e000dc2	0.12505248
248	0x3dfc23ec	0.12311539
249	0x3d93a657	0.07209461
250	0x3e017ad9	0.12644519
251	0xbdd7f095	-0.10543934
252	0x3d328e42	0.0435927
253	0x3dc01675	0.09379283
254	0x3d8fbe24	0.07018688
255	0x3df486f7	0.11939805

tcn.layers.0.conv2.bias f4 [16]
0	0x3dd38fdd	0.10330174
1	0x3dad725f	0.0846908
2	0xbd0ddaed	-0.034632612
3	0xbd0503b6	-0.032474242
4	0xbcec855a	-0.02887218
5	0x3d814c75	0.06313411
6	0x3d229c15	0.039699633
7	0x3da2b193	0.07944026
8	0xbd3da96e	-0.04630416
9	0x3d04f7ae	0.03246277
10	0xbe09af5d	-0.13445802
11	0xbd05bd46	-0.03265121
12	0xbe0ad986	-0.13559541
13	0x3c86684b	0.016407153
14	0x3dd0147f	0.10160159
15	0x3d8adaf2	0.06780042

tcn.layers.0.net.0.weight f4 [16, 3, 3]
0	0x3e92a578	0.28641868
1	0xbe3b626c	-0.18299264
2	0x3e67847d	0.22609134
3	0xbda6f0e2	-0.081514135
4	0x3e0aa371	0.1353891
5	0x3e8487a6	0.25884742
6	0x3d9a21ab	0.07525953
7	0x3e66128f	0.22468017
8	0x3e5cfef2	0.21581629
9	0x3ea1b937	0.3158662
10	0xbe9ebeb3	-0.31004867
11	0x3e5b3678	0.21407497
12	0x3e7a3c4c	0.24437064
13	0xbcb1c909	-0.021702306
14	0xbc84efe3	-0.016227668
15	0xbe80913d	-0.25110808
16	0x3c06dcd3	0.0082313595
17	0xbdd5d294	-0.10440555
18	0x3e0dba95	0.13840707
19	0x3e8b5776	0.27215165
20	0xbdc50090	-0.09619248
21	0x3e9f2b8b	0.31087908
22	0xbe4d1f5f	-0.20031498
23	0xbe670f90	-0.2256453
24	0xbe7defd6	-0.24798521
25	0xbe9ab2ff	-0.30214688
26	0xbd95cbfa	-0.07314296
27	0x3e8d27c2	0.27569395
28	0x3e1d371c	0.15353054
29	0x3e94d4fa	0.29068738
30	0x3e02e8e8	0.12784159
31	0x3e24a7b4	0.16079599
32	0x3e98f047	0.29870817
33	0x3e91491f	0.283761
34	0xbe8161fa	-0.25270063
35	0xbe89b676	-0.2689702
36	0x3e6d9583	0.23201565
37	0xbe819161	-0.25306228
38	0xbe6e5f7a	-0.23278609
39	0xbe3bb258	-0.18329751
40	0x3d4a9c6b	0.049465578
41	0x3e240e33	0.16021042
42	0xbe731ed9	-0.23742236
43	0xbe6ff5ae	-0.23433563
44	0x3e7c3101	0.24628069
45	0x3e9bba92	0.3041578
46	0x3d9ef5a8	0.07761699
47	0x3c29d17e	0.010364888
48	0xbea00b81	-0.31258777
49	0x3e2106d6	0.15725264
50	0x3e91b914	0.28461516
51	0xbead83e8	-0.338897
52	0xb9e7599e	-0.00044126523
53	0xbc79cd30	-0.015246674
54	0xbe0a108f	-0.13482879
55	0xbdf3df26	-0.119077966
56	0xbe6f26a6	-0.23354587
57	0xbe560930	-0.20901942
58	0xbe4c24e5	-0.19935949
59	0x3e94c985	0.29059997
60	0xbe0acbd7	-0.13554321
61	0x3d70999f	0.058740254
62	0xbe8bbf1c	-0.27294242
63	0x3daf018e	0.085452184
64	0xbe9bd6a1	-0.30437186
65	0x3e99d8f8	0.30048347
66	0x3e464cb3	0.19365196
67	0xbe63d849	-0.22250475
68	0x3e0ba21a	0.13636056
69	0xbe61aaa9	-0.22037758
70	0x3cb5166f	0.022105424
71	0xbde638bd	-0.11241291
72	0x3d2cb6e5	0.04216661
73	0xbead0424	-0.33792222
74	0xbe47c88d	-0.19510098
75	0x3e25c3ae	0.16187927
76	0x3e1fa27e	0.1558933
77	0x3e16550a	0.14680877
78	0xbe1f6dfe	-0.15569302
79	0xbdd459d3	-0.10368695
80	0x3ea04e7f	0.31309888
81	0x3e905f9a	0.28197938
82	0x3d0810d1	0.033219162
83	0x3c1dcfdd	0.009632078
84	0x3ea3de93	0.32005748
85	0xbdfd449f	-0.12366604
86	0xbc9639ce	-0.01833811
87	0xbe1ffac3	-0.15623002
88	0x3cb649d1	0.022251995
89	0x3e81a27e	0.25319284
90	0x3e4eba06	0.2018815
91	0x3e81a0c3	0.25317964
92	0xbe51f877	-0.20504938
93	0x3e7cd425	0.24690302
94	0xbdbeab5d	-0.09310029
95	0x3d808cf8	0.06276888
96	0xbe95be2d	-0.29246655
97	0xbcbb8d5a	-0.02289455
98	0xbcec0c03	-0.028814321
99	0x3e0d6ee0	0.13811827
100	0x3e0ad806	0.13558969
101	0xbd86d5c1	-0.06583739
102	0xbea349c2	-0.3189221
103	0xbe48c202	-0.19605258
104	0xbe904aef	-0.2818217
105	0x3e83e27d	0.25758734
106	0xbdbb8d14	-0.09157768
107	0xbe705e6d	-0.2347352
108	0xbde85d1e	-0.11345886
109	0xbe6d9eb7	-0.23205076
110	0xbdeb43a6	-0.11487512
111	0x3e56bc3e	0.20970246
112	0x3e81bd62	0.253398
113	0x3ea79639	0.32731798
114	0xbe3a5ef1	-0.1820028
115	0x3ce5816a	0.028015811
116	0x3e33d237	0.1756066
117	0xbe67b0de	-0.22626063
118	0xbe472b9f	-0.19450234
119	0xbe51e31c	-0.20496792
120	0xbe17f829	-0.1484076
121	0x3d02ae78	0.031904668
122	0x3e92ccdd	0.28671923
123	0xbe8f86d6	-0.2803256
124	0xbdc4ae2c	-0.09603533
125	0xbdb208ca	-0.08693083
126	0xbe1f10f2	-0.15533808
127	0x3de09b0f	0.10967075
128	0x3e84f283	0.25966272
129	0x3dcd1f3b	0.10015722
130	0xbe8c0694	-0.2734877
131	0xbe22ba36	-0.15891346
132	0xbd97a3ad	-0.074042656
133	0xbd9e1065	-0.07717971
134	0x3b5a09f1	0.0033270086
135	0xbe6dc5ef	-0.23220037
136	0xbe7811ac	-0.24225491
137	0x3ea12655	0.31474558
138	0x3d8e1ab9	0.06938691
139	0xbe052d1a	-0.13005486
140	0x3d13655e	0.035985343
141	0x3d81d057	0.06338566
142	0xbdf7c3e9	-0.12097914
143	0x3d9bf255	0.076145805

tcn.layers.0.net.0.bias f4 [16]
0	0xbe58215e	-0.21106479
1	0x3cadbb86	0.021207582
2	0xbdb3d302	-0.08780481
3	0xbd88acd6	-0.06673591
4	0xbe8f609f	-0.28003404
5	0x3e2b32b2	0.16718557
6	0xbdf25c50	-0.118340135
7	0x3e95d592	0.29264504
8	0xbe30c3b1	-0.1726215
9	0xbe61f2da	-0.22065297
10	0x3db55c2d	0.08855472
11	0x3e7fb1fe	0.24970242
12	0xbdee676f	-0.11640822
13	0x3e9aa829	0.3020642
14	0x3e36cbf2	0.17851236
15	0xbe82162e	-0.25407547

tcn.layers.0.net.1.weight f4 [16]
0	0x3f7d08bf	0.9884147
1	0x3f805f77	1.0029134
2	0x3f80a9f5	1.0051867
3	0x3f805f50	1.0029087
4	0x3f7edc07	0.99554485
5	0x3f8083f3	1.0040268
6	0x3f7ffd18	0.99995565
7	0x3f80fe0a	1.0077527
8	0x3f7d848d	0.9903038
9	0x3f7fdf85	0.9995044
10	0x3f7f1ce7	0.99653476
11	0x3f817575	1.011397
12	0x3f7e6ef2	0.9938804
13	0x3f81cc48	1.0140467
14	0x3f7fd6d9	0.99937207
15	0x3f7f41f0	0.9970999

tcn.layers.0.net.1.bias f4 [16]
0	0xbc4fc749	-0.012681791
1	0x3c45f808	0.012083061
2	0x3add05e9	0.0016862723
3	0x3acc6954	0.0015595355
4	0xbc15b231	-0.009136722
5	0xbc0f6d73	-0.008754122
6	0xbc166a81	-0.009180666
7	0x3aa01cf0	0.0012215655
8	0xbbd15075	-0.006387765
9	0xbbeffe79	-0.0073240367
10	0x3bb78990	0.0056011155
11	0x3b590a70	0.0033117794
12	0xbbfd1e5d	-0.007724567
13	0x3c0969ad	0.0083870115
14	0x3be4bd45	0.0069805705
15	0xbaab4b55	-0.0013068715

tcn.layers.0.net.1.running_mean f4 [16]
0	0xbe9d2b02	-0.30696875
1	0x3c520f8d	0.01282109
2	0xbd65a12a	-0.0560619
3	0xbe26ce4c	-0.16289634
4	0xbe69c9b3	-0.22830848
5	0x3e104fef	0.14092992
6	0xbcce9396	-0.025216859
7	0x3e95f366	0.2928726
8	0xbe1fbcf8	-0.1559943
9	0xbe8b26c9	-0.27178028
10	0x3d9589d6	0.07301681
11	0x3e91fa4b	0.2851127
12	0xbe008e04	-0.12554175
13	0x3ec4ba47	0.38423368
14	0x3e402a34	0.18766099
15	0xbe6ae056	-0.2293714

tcn.layers.0.net.1.running_var f4 [16]
0	0x3e9aeef7	0.3026044
1	0x3e91f7b9	0.2850931
2	0x3ec682c0	0.3877163
3	0x3ee33cd6	0.44382352
4	0x3ed98b14	0.4248892
5	0x3ec50eeb	0.38487944
6	0x3eb9e77a	0.36309415
7	0x3e8bba56	0.272906
8	0x3ec17380	0.37783432
9	0x3e851f6f	0.26000544
10	0x3e9a8ef2	0.30187184
11	0x3ebb875f	0.36626717
12	0x3eb88306	0.36037463
13	0x3ea2deac	0.3181051
14	0x3e8a2386	0.26980227
15	0x3e803013	0.25036678

tcn.layers.0.net.4.weight f4 [16, 16, 3]
0	0xbd959452	-0.073036805
1	0xbe05bdb5	-0.13060649
2	0x3d8a906c	0.067658275
3	0xbde3ade9	-0.11117155
4	0xbcbcaa62	-0.023030464
5	0x3df0de8b	0.11761197
6	0xbe08794d	-0.13327523
7	0x3db82d9a	0.08993073
8	0xbd15a76e	-0.036536627
9	0x3de81e9b	0.113339625
10	0xbdf1f213	-0.1181375
11	0xbb168d84	-0.0022972533
12	0x3ce0d6c7	0.027446164
13	0x3d9e92bb	0.0774283
14	0x3db7fdd0	0.08983958
15	0xbcfca52f	-0.030840484
16	0xbde16bca	-0.11006887
17	0xbc8886bf	-0.016665814
18	0xbdc10b12	-0.094259396
19	0x3c2e4460	0.010636419
20	0xbd8254d6	-0.063638374
21	0x3e017d98	0.12645566
22	0x3d06522d	0.032793213
23	0xbd5134d7	-0.051075783
24	0x3dadfac3	0.084950946
25	0xbd5eb848	-0.054374963
26	0x3df9f9ec	0.12205872
27	0x3d51b09c	0.05119382
28	0x3e02bc87	0.1276723
29	0x3df6bdb5	0.120479025
30	0xbdb7aac1	-0.089681156
31	0x3dbb51ff	0.09146499
32	0xbd3effba	-0.0466306
33	0xbcac0170	-0.02099678
34	0x3def38fe	0.11680792
35	0xbe1049e5	-0.14090689
36	0x3e11c5e3	0.14235644
37	0xbca6cfe7	-0.020362807
38	0x3cb77db1	0.022398802
39	0x3de56c00	0.1120224
40	0x3d88c61d	0.06678412
41	0x3c265c8b	0.0101539
42	0xbcd638d9	-0.026150154
43	0x3c93494f	0.017979292
44	0xbd80f05e	-0.062958464
45	0x3dbd7978	0.09251684
46	0x3e03f453	0.12886171
47	0xbde5e92e	-0.11226116
48	0xbd1fb512	-0.03899104
49	0xbe061b19	-0.13096274
50	0x3de05a80	0.109547615
51	0x3e011c80	0.12608528
52	0xbb042504	-0.0020163665
53	0x3d1fd4f6	0.039021455
54	0xbd33db6d	-0.043910433
55	0xbd9867a5	-0.074416436
56	0x3e1cdf12	0.1531947
57	0x3e00f0f6	0.1259192
58	0x3df30f4c	0.11868152
59	0xbcad1649	-0.02112879
60	0x3d6fdcf8	0.05856034
61	0x3e082663	0.13295893
62	0x3d225bab	0.039638203
63	0x3d33fa7c	0.043940052
64	0xbb97c316	-0.0046314104
65	0xbd1efc23	-0.038814675
66	0xbdb1ad8f	-0.08675682
67	0x3e159bf6	0.14610276
68	0x3ddc2e27	0.1075099
69	0x3dcc1153	0.09964242
70	0x3dd2a832	0.10285987
71	0xbd313c0f	-0.043270167
72	0xbd3ef2d7	-0.04661831
73	0x3d49cfbc	0.049270377
74	0x3c7366fa	0.0148560945
75	0xbda31b3b	-0.07964178
76	0x3dd5a5f3	0.10432043
77	0xbd74dae0	-0.059779048
78	0xbd7af99b	-0.0612732
79	0x3d98a2ea	0.074529484
80	0xbb281630	-0.002564799
81	0xbd850704	-0.06495479
82	0xbd4a19dd	-0.04934107
83	0x3db4d1eb	0.08829101
84	0xbe0ddf5c	-0.13854736
85	0xbddaffe8	-0.106933415
86	0xbd825051	-0.063629754
87	0xbe079719	-0.13241233
88	0x3e096b91	0.1341994
89	0x3dfb8c33	0.122826
90	0x3dfa1020	0.12210107
91	0xba92d4b0	-0.0011202302
92	0xbd952e3f	-0.07284211
93	0xbd6a1b74	-0.057155088
94	0xbdb8929f	-0.09012341
95	0x3c93ee20	0.018057883
96	0x3da7fbf7	0.08202355
97	0xbd0ec6fa	-0.034857728
98	0x3dfc7190	0.12326348
99	0x3a093f9b	0.0005235613
100	0x3de21442	0.1103902
101	0x3e1418fa	0.14462653
102	0x3dda6232	0.106632605
103	0xbd1eb34e	-0.038745217
104	0x3d463c5e	0.048397414
105	0x3dc4a858	0.096024215
106	0xbd61a722	-0.05509103
107	0xbcb09186	-0.021553766
108	0xbd97d51e	-0.07413696
109	0xbe094130	-0.13403773
110	0xbe10faca	-0.14158168
111	0x3dcedfd5	0.10101286
112	0x3d0d3541	0.034474615
113	0x3da897f5	0.082321085
114	0x3dc5c162	0.096560255
115	0x3c8a96fd	0.0169177
116	0xbd3f1b6e	-0.04665702
117	0xbd356d49	-0.044293676
118	0x3b84651c	0.0040403735
119	0x3c96f61b	0.0184279
120	0x3dee00aa	0.116212204
121	0x3dea28b8	0.11433548
122	0x3cf4e640	0.029894948
123	0xbd2c10e9	-0.042008314
124	0x3dd0e939	0.10200734
125	0xbd97f8a0	-0.07420468
126	0x3d329589	0.04359964
127	0x3dee2e25	0.11629895
128	0xbd6cedb6	-0.057843886
129	0x3da5dc1c	0.08098623
130	0xbdaa6582	-0.08320142
131	0x3c04c0f0	0.0081026405
132	0x3e168565	0.14699323
133	0xbdacbf5c	-0.084349364
134	0x3ddad362	0.10684849
135	0x3dd4ab19	0.10384197
136	0xbdc11d9a	-0.09429474
137	0xbd71cb21	-0.05903161
138	0x3df85d72	0.12127198
139	0x3def052c	0.11670908
140	0xbdf46a1a	-0.119343
141	0x3c6f570e	0.014608158
142	0xbce48bfc	-0.027898781
143	0x3e07c2de	0.1325793
144	0x3cb4ceba	0.022071231
145	0x3c077f45	0.0082700895
146	0x3d5896df	0.052878257
147	0xbd00467d	-0.031317223
148	0xbd8baaa4	-0.068196565
149	0x3dac58c4	0.08415368
150	0x3df490bd	0.11941669
151	0xbadf35da	-0.0017029599
152	0x3d65b310	0.05607897
153	0x3e1fe98e	0.15616438
154	0x3dd772d9	0.10519952
155	0x3d8ea043	0.06964161
156	0x3db10977	0.086443834
157	0xbd6ba195	-0.057527144
158	0x3e0c36e1	0.1369281
159	0xbd124843	-0.035713445
160	0xbd0c041f	-0.034183618
161	0x3e17cf37	0.1482514
162	0xbd8f52a2	-0.06998183
163	0xbd9870f7	-0.07443421
164	0x3dfbd469	0.122963734
165	0x3dcae126	0.09906225
166	0x3db308a2	0.08741881
167	0xbdbd1390	-0.09232247
168	0xbda0c8d3	-0.07850804
169	0x3dd9005e	0.10595773
170	0xbdc22843	-0.094803356
171	0x3e007915	0.12546189
172	0x3d783813	0.06060035
173	0x3d8151d6	0.06314437
174	0xbd08ded2	-0.033415623
175	0x3d86097a	0.06544776
176	0x3dbec051	0.09314025
177	0xbe037e10	-0.12841058
178	0x3caf295e	0.02138203
179	0xbe08e765	-0.1336952
180	0x3ddc0baa	0.10744412
181	0xbd728a95	-0.059214193
182	0xbcec1ae2	-0.028821412
183	0xbdff13a4	-0.12454918
184	0xbd8b7a01	-0.0681038
185	0xbd68b819	-0.056816194
186	0x3e1a6665	0.15078123
187	0x3cb903dc	0.022584848
188	0x3d012f14	0.031539038
189	0xbd8c681e	-0.06855796
190	0x3db6217d	0.08893106
191	0xbc279cf9	-0.010230296
192	0xbdcc7bb8	-0.09984535
193	0x3e01908e	0.126528
194	0xbd63a13a	-0.05557368
195	0xbdf553b5	-0.119788565
196	0x3c220e6a	0.009891132
197	0x3d981de0	0.07427573
198	0xbdc8c124	-0.09802464
199	0xbd56e436	-0.052463733
200	0x3ced5a8f	0.028973846
201	0xbdd32180	-0.10309124
202	0xbd93369e	-0.07188152
203	0xbd72b7ca	-0.059257306
204	0xbdc141a9	-0.09436352
205	0x3d689884	0.056786075
206	0x3da05438	0.078285635
207	0x3d993d77	0.074824266
208	0x3e030301	0.12794115
209	0xbd78aa14	-0.060709074
210	0x3def462a	0.116833046
211	0xbddc084f	-0.10743772
212	0x3dfe2a84	0.12410453
213	0xbda0a1e5	-0.07843379
214	0xbc3adee2	-0.0114056785
215	0xbd86f8e6	-0.06590442
216	0xbdcd17cf	-0.10014307
217	0x3d29b6fc	0.041434273
218	0x3cc28f54	0.023749985
219	0xbddf6ead	-0.109097816
220	0x3dcd96d9	0.100385375
221	0x3de171e7	0.11008053
222	0xbdb22f5d	-0.0870044
223	0x3d9fdf82	0.078063026
224	0xbcdb652a	-0.026781637
225	0x3e0e6a15	0.13907655
226	0xbd2c248f	-0.042027052
227	0x3d7b289c	0.061318025
228	0xbd0aa027	-0.03384414
229	0x3cf65d05	0.030073652
230	0xbdb98d71	-0.09060181
231	0xbd82f299	-0.06393928
232	0xbdec9a74	-0.11552897
233	0xbdc35768	-0.09538156
234	0xbdc2ca4a	-0.0951124
235	0x3c83b41a	0.01607709
236	0xbd749a73	-0.059717607
237	0xbc78219f	-0.015144735
238	0xbdaf45a0	-0.08558202
239	0x3c60eaf4	0.013727892
240	0xbded8ff3	-0.11599722
241	0x3d30419d	0.043031324
242	0x3dd9548c	0.10611829
243	0xbdb01e15	-0.08599488
244	0xbc00ca1a	-0.007860685
245	0xbd9a62b7	-0.075383596
246	0xbcf86a77	-0.030324204
247	0x3e000dc2	0.12505248
248	0x3dfc23ec	0.12311539
249	0x3d93a657	0.07209461
250	0x3e017ad9	0.12644519
251	0xbdd7f095	-0.10543934
252	0x3d328e42	0.0435927
253	0x3dc01675	0.09379283
254	0x3d8fbe24	0.07018688
255	0x3df486f7	0.11939805

tcn.layers.0.net.4.bias f4 [16]
0	0x3dd38fdd	0.10330174
1	0x3dad725f	0.0846908
2	0xbd0ddaed	-0.034632612
3	0xbd0503b6	-0.032474242
4	0xbcec855a	-0.02887218
5	0x3d814c75	0.06313411
6	0x3d229c15	0.039699633
7	0x3da2b193	0.07944026
8	0xbd3da96e	-0.04630416
9	0x3d04f7ae	0.03246277
10	0xbe09af5d	-0.13445802
11	0xbd05bd46	-0.03265121
12	0xbe0ad986	-0.13559541
13	0x3c86684b	0.016407153
14	0x3dd0147f	0.10160159
15	0x3d8adaf2	0.06780042

tcn.layers.0.net.5.weight f4 [16]
0	0x3f8076af	1.0036219
1	0x3f7ebcec	0.9950702
2	0x3f7c8042	0.98633206
3	0x3f813fdb	1.0097612
4	0x3f807a88	1.0037394
5	0x3f80dd5c	1.0067554
6	0x3f7b7c29	0.9823633
7	0x3f810727	1.0080308
8	0x3f7f255c	0.9966638
9	0x3f7cc12f	0.98732275
10	0x3f7ee508	0.99568224
11	0x3f7f77b2	0.99792016
12	0x3f803496	1.0016048
13	0x3f805590	1.0026112
14	0x3f814d2b	1.0101675
15	0x3f7f10ce	0.99635017

tcn.layers.0.net.5.bias f4 [16]
0	0x3c110c33	0.008853006
1	0xbb6fd855	-0.003659745
2	0xbc28ed1c	-0.0103104375
3	0xbbb83845	-0.005621942
4	0xba013874	-0.00049293716
5	0x3c38111c	0.011234548
6	0xbc913386	-0.017724764
7	0xbae6f5b4	-0.0017620833
8	0xbb39be74	-0.0028342279
9	0xbc75a4e0	-0.014992923
10	0xb9538d36	-0.00020175133
11	0xbbd9ac6b	-0.0066428683
12	0x3c073207	0.008251674
13	0xba7c523b	-0.00096252904
14	0x3c0ac07a	0.008468742
15	0xbbd6403a	-0.006538418

tcn.layers.0.net.5.running_mean f4 [16]
0	0x3e85e035	0.2614762
1	0x3e911439	0.2833574
2	0x3ebb5d32	0.3659454
3	0x3e8b96b1	0.27263406
4	0xbe811a35	-0.25215307
5	0xbbf680be	-0.0075226715
6	0xbe1c1502	-0.15242389
7	0x3e083aca	0.13303676
8	0xbe88d8a7	-0.26727793
9	0x3e1179c9	0.14206614
10	0xbe02ad89	-0.12761511
11	0xbd762a90	-0.060099185
12	0xbcacdfd8	-0.02110283
13	0xbd96a9da	-0.07356615
14	0x3ee509c8	0.44734025
15	0x3e7215bd	0.23641105

tcn.layers.0.net.5.running_var f4 [16]
0	0x3e4d9b42	0.20078757
1	0x3e50967e	0.20369908
2	0x3e2148c1	0.1575041
3	0x3e68660a	0.22695175
4	0x3e55963d	0.20858093
5	0x3e623a2a	0.220925
6	0x3e622119	0.22082938
7	0x3e376f30	0.17913508
8	0x3e3d6727	0.18496381
9	0x3e65b10c	0.2243082
10	0x3dde2638	0.108471334
11	0x3e69d44e	0.22834894
12	0x3e51ac0a	0.20475784
13	0x3e7de3ce	0.24793932
14	0x3e31a789	0.17349066
15	0x3e03b7a0	0.12863016

tcn.layers.0.downsample.weight f4 [16, 3, 1]
0	0xbe455791	-0.19271685
1	0x3e78929a	0.24274674
2	0x3d8bc9c3	0.06825592
3	0xbec0dfd5	-0.3767077
4	0x3ee273b2	0.44228894
5	0x3ed3adc0	0.41343498
6	0xbea77ec6	-0.32713908
7	0x3ed40fe4	0.41418374
8	0xbeaf10ec	-0.34192598
9	0x3e911ca1	0.28342155
10	0xbc0bcc2e	-0.008532567
11	0xbe121078	-0.14264095
12	0xbebd707c	-0.3699988
13	0xbec4c447	-0.38430998
14	0xbe0b998c	-0.13632792
15	0xbeb6320a	-0.35585052
16	0xbdbd6f74	-0.092497736
17	0xbec6a257	-0.3879573
18	0xbe68bd2e	-0.22728416
19	0x3d93695c	0.0719783
20	0x3e87eb63	0.26546773
21	0xbde084de	-0.109628424
22	0xbf093588	-0.5359731
23	0x3f08ccac	0.53437304
24	0x3e89f1a4	0.2694217
25	0xbec2981b	-0.38006672
26	0xbf0451b1	-0.5168715
27	0x3ecfb7de	0.40569967
28	0xbde93238	-0.113865316
29	0x3e1131cc	0.14179152
30	0xbd06cf29	-0.032912407
31	0x3e4119e1	0.18857528
32	0xbe557efa	-0.20849219
33	0xbf140c19	-0.5783096
34	0x3e05f4c4	0.13081652
35	0x3f0899c1	0.5335961
36	0x3ebc18b5	0.367376
37	0x3eb24a63	0.34822378
38	0x3e1f5b37	0.1556214
39	0xbeff2199	-0.4983032
40	0xbdce5d72	-0.10076417
41	0xbd9e69fc	-0.07735059
42	0xbf05acc3	-0.5221674
43	0x3f0cdcec	0.550246
44	0x3e8f3e8f	0.27977416
45	0xbdd8d994	-0.10588375
46	0xbd494882	-0.049141414
47	0xbeccc474	-0.39993632

tcn.layers.0.downsample.bias f4 [16]
0	0x3ed9085f	0.423892
1	0xbe575a66	-0.21030578
2	0xbe665694	-0.22493964
3	0x3c9ad0e5	0.018898437
4	0xbe10c002	-0.14135745
5	0xbee39cc7	-0.4445555
6	0x3e2003a6	0.15626392
7	0xbe5b1ea0	-0.21398401
8	0x3de7bdf8	0.113155305
9	0xbea20227	-0.31642267
10	0xbe6537a7	-0.22384511
11	0xbec6b68a	-0.3881114
12	0x3e2f326d	0.1710908
13	0xbe1a3779	-0.15060224
14	0xbf06811c	-0.52540755
15	0x3dc8d53f	0.098062985

tcn.layers.1.conv1.weight f4 [32, 16, 3]
0	0xbcb0ea87	-0.021596206
1	0xbddd2cf5	-0.107995905
2	0x3c7575ac	0.014981668
3	0x3e015c5b	0.12632887
4	0x3d9ab27e	0.07553576
5	0xbd7f9211	-0.06239516
6	0xbd42c49d	-0.047550786
7	0xbd850bb9	-0.064963765
8	0xbdd600d2	-0.10449375
9	0x3dc7b1a8	0.09750682
10	0xbdd6ea21	-0.10493875
11	0x3de5120f	0.11185085
12	0xbd8a7fcd	-0.06762657
13	0x3dd390c5	0.10330347
14	0x3ca2025e	0.01977652
15	0x3d69aee2	0.057051547
16	0xbe0fb7d0	-0.14034963
17	0xbd17c266	-0.037050627
18	0xbdf37ae2	-0.118886724
19	0xbe07d072	-0.1326311
20	0x3d812bde	0.06307195
21	0x3d36b56d	0.044606615
22	0x3dae13e1	0.08499885
23	0x3cdada9f	0.026715575
24	0x3e05ab7e	0.130537
25	0x3db93648	0.090435565
26	0x3d8f4158	0.06994885
27	0x3d236ee7	0.039900687
28	0x3d9b87e2	0.07594277
29	0xbd505496	-0.050861917
30	0xbdb9439c	-0.090460986
31	0xbd8433ec	-0.06455216
32	0x3da85c51	0.08220733
33	0x3d35af11	0.04435641
34	0xbdd6a317	-0.10480326
35	0xbdf4b01f	-0.11947655
36	0xbd120cd6	-0.035656773
37	0xbd131622	-0.03590978
38	0xbe1178e3	-0.14206271
39	0x3d8baf44	0.06820539
40	0x3db2c79f	0.08729481
41	0x3d3facdb	0.046795707
42	0x3e12ad88	0.1432401
43	0xbdd0c459	-0.101937
44	0xbcaef2e3	-0.021356052
45	0xbe1188c6	-0.14212331
46	0x3cb5f29e	0.022210415
47	0xbdddc1b8	-0.108279645
48	0x3d42bef7	0.0475454
49	0x3dddf95b	0.108385764
50	0xbb788925	-0.0037923541
51	0xba8ee2e4	-0.0010901359
52	0x3d3e1f70	0.0464167
53	0xbd09b7a1	-0.033622388
54	0x3e060f5c	0.13091797
55	0x3c9bb4bb	0.019007077
56	0x3dce7255	0.10080401
57	0xbdb86e30	-0.090053916
58	0x3dda6a8e	0.10664855
59	0xbdfe4d02	-0.12417032
60	0x3d76bf4e	0.060241036
61	0xbb1fd8fe	-0.0024390812
62	0xbd8d2940	-0.068926334
63	0xbda4e1ca	-0.08050878
64	0x3d6918ed	0.056908537
65	0xbde16cfb	-0.110071145
66	0xbc86fbc5	-0.016477475
67	0x3d5f12d9	0.054461334
68	0x3d946729	0.07246239
69	0xbcf23cf0	-0.029570073
70	0xbd6cd4fa	-0.057820298
71	0x3cf03606	0.029322635
72	0x3c815443	0.01578725
73	0x3dcd9b4c	0.10039386
74	0xbe173b5a	-0.14768735
75	0x3dc1047b	0.09424683
76	0x3d377ab8	0.044794768
77	0xbe10a579	-0.14125623
78	0xbdc19fef	-0.09454333
79	0x3dc8ee86	0.0981112
80	0x3bc1b525	0.0059114867
81	0x3ce01c60	0.02735728
82	0x3db2906e	0.08718954
83	0xbd134f70	-0.03596443
84	0xbdf184b9	-0.11792893
85	0xbdbed68f	-0.093182676
86	0xbd2f087f	-0.042732712
87	0x3d2cdc9e	0.042202584
88	0x3de73069	0.112885304
89	0x3dffa6c6	0.124829814
90	0xbdd19ab4	-0.102345854
91	0x3d8eab2b	0.069662414
92	0xbc1a2606	-0.00940848
93	0x3ccdee43	0.025138026
94	0xbaa96238	-0.0012922948
95	0x3d84a548	0.064768374
96	0xbdf10daa	-0.11770184
97	0x3d5f3dfe	0.05450248
98	0x3e0f784c	0.14010733
99	0xbe0a345e	-0.13496539
100	0xbd75cce8	-0.060009867
101	0x3e04e445	0.12977703
102	0x3b200b69	0.0024420863
103	0xbe16579c	-0.14681858
104	0x3db494c1	0.08817435
105	0xbe0c977e	-0.13729665
106	0xbda2ae4a	-0.07943399
107	0xbdc86376	-0.09784596
108	0xbc0ee706	-0.0087220725
109	0x3dfa59b9	0.122241445
110	0xbd96a0df	-0.073549025
111	0x3e09e2eb	0.13465469
112	0xbc9304d4	-0.017946638
113	0xbe178ef8	-0.14800632
114	0xbd50401e	-0.050842397
115	0x3dfbc30f	0.12293064
116	0x3dab6300	0.08368492
117	0xbe0ba191	-0.13635851
118	0xbc2873f6	-0.0102815535
119	0x3e0aadee	0.13542911
120	0xbd328e12	-0.04359252
121	0x3b783ac9	0.0037876836
122	0xbd7c93a5	-0.061664242
123	0xbc7d724f	-0.015469148
124	0x3c923e85	0.017852077
125	0xbd98fa44	-0.074696094
126	0xbc63a972	-0.013895379
127	0x3de707d1	0.11280788
128	0x3c1caf6d	0.009563309
129	0x3cd20156	0.025635403
130	0x3d57ead6	0.05271419
131	0x3d857724	0.06516865
132	0x3d67b233	0.05656643
133	0x3d355165	0.044267077
134	0xbbdd6951	-0.0067569395
135	0x3de22d0e	0.1104375
136	0x3d45c684	0.048285022
137	0x3d8b87cd	0.06813011
138	0xbd8fbd73	-0.070185564
139	0x3d9e4582	0.07728101
140	0x3d4dc5f5	0.050237615
141	0xbdeecd18	-0.11660212
142	0xbcfcb437	-0.030847652
143	0x3e0c7709	0.13717283
144	0x3b62f5b7	0.003463132
145	0xbb314acd	-0.0027052641
146	0x3def2736	0.11677401
147	0xbd9d93d8	-0.076942146
148	0xbdf6e030	-0.12054479
149	0xbe14a9b3	-0.1451786
150	0x3d8a8801	0.06764222
151	0x3d1026a8	0.035193115
152	0x3d9a4436	0.075325415
153	0xbdf7781f	-0.12083458
154	0x3dc495f5	0.095989145
155	0xbd827942	-0.06370784
156	0x3db2eb2b	0.08736261
157	0x3dc496ec	0.095990986
158	0xbca5e39e	-0.020250138
159	0xbdcbdea9	-0.099545784
160	0xbdef6ce5	-0.11690692
161	0xbb03dbe2	-0.0020120074
162	0xbdee86b9	-0.1164679
163	0xbe04d224	-0.12970787
164	0xbc1dcea7	-0.009631789
165	0x3bec2dc2	0.007207603
166	0xbe07b9f4	-0.13254529
167	0x3e0aebca	0.13566509
168	0x3d3beafd	0.0458784
169	0x3dc5bf67	0.09655648
170	0xbde20183	-0.110354446
171	0x3bd22a56	0.0064137382
172	0xbe10659c	-0.14101261
173	0xbc5d261a	-0.013497854
174	0x3cd3338f	0.025781421
175	0x3c925afa	0.017865647
176	0x3ca909ed	0.020634616
177	0x3df668ca	0.12031706
178	0x3dcbcf99	0.099517055
179	0x3e059936	0.13046727
180	0xbcfdf975	-0.03100274
181	0x3d9264c1	0.071481235
182	0x3dec0640	0.115246296
183	0x3e0dbde1	0.13841964
184	0x3d6d4cd2	0.05793459
185	0xbdcc6732	-0.099806204
186	0xbe105bbe	-0.14097497
187	0x3cd378d0	0.025814444
188	0x3dd96042	0.10614063
189	0xbd87236c	-0.06598553
190	0x3dba151f	0.0908606
191	0xbd9a07b6	-0.07521002
192	0xbd91ef21	-0.07125688
193	0x3daaf034	0.08346596
194	0xbce5f06c	-0.028068744
195	0xbd97cad8	-0.07411736
196	0x3dd1f63b	0.10252043
197	0x3d624c88	0.055248767
198	0xbc97f12a	-0.018547613
199	0x3dd550c0	0.104157925
200	0xbda2fddc	-0.07958576
201	0x3da335ef	0.079692714
202	0x3db5d5a9	0.08878643
203	0xbde3db40	-0.11125803
204	0x3dbe1fd6	0.09283416
205	0xbcb49979	-0.022045838
206	0x3da571de	0.08078359
207	0xbd61cc5e	-0.05512654
208	0x3db20412	0.086921826
209	0xbd9069f3	-0.07051458
210	0x3daca48d	0.08429823
211	0xbde05787	-0.109541945
212	0x3d26dc7b	0.04073761
213	0x3df01fb4	0.11724797
214	0x3dde9e84	0.10870078
215	0x3db4c3db	0.08826419
216	0xbd8b929a	-0.068150714
217	0xbdecb416	-0.11557786
218	0xbde91da4	-0.113826066
219	0x3e06f3ca	0.13178936
220	0xbdbb861c	-0.09156439
221	0x3d50a73d	0.05094074
222	0x3d98e2ed	0.07465158
223	0x3d19bc3d	0.037533034
224	0x3db306f3	0.0874156
225	0xbdbc69ec	-0.091998905
226	0xbde6ffbf	-0.112792484
227	0x3d9b1419	0.07572193
228	0xbde1eb92	-0.110312596
229	0xbde33bf9	-0.11095423
230	0x3c98c6d7	0.018649502
231	0xbd3b217a	-0.045686223
232	0xbe112faa	-0.14178339
233	0xbddc545c	-0.10758278
234	0x3d768907	0.060189273
235	0xbacbb1a6	-0.0015540614
236	0xbda51bce	-0.08061944
237	0xbd5a4b30	-0.05329436
238	0xbc93b56e	-0.018030848
239	0x3df33555	0.11875407
240	0xbd16a828	-0.03678146
241	0xbd3e3752	-0.046439476
242	0xbdadc641	-0.084850796
243	0x3df76f9c	0.12081835
244	0x3cc6f9bc	0.024289005
245	0x3d6db1a3	0.058030736
246	0xbd070949	-0.03296784
247	0xbddc0f73	-0.10745134
248	0x3caf9de4	0.021437593
249	0xbda7a83a	-0.081863835
250	0xbdbe920c	-0.093052
251	0x3d29e94d	0.04148226
252	0xbdf03563	-0.11728933
253	0x3d895ad4	0.06706777
254	0x3d7bcc00	0.061473846
255	0xbd62e495	-0.055393774

tcn.layers.1.conv1.bias f4 [32]
0	0xbd12352a	-0.035695232
1	0x3d16a476	0.036777936
2	0xbc5df339	-0.013546758
3	0x3de2f0c4	0.11081079
4	0xbde24e3a	-0.11050077
5	0xbdeefbb1	-0.116691
6	0x3d97fdeb	0.07421478
7	0xbdfd9b23	-0.123831056
8	0xbd709732	-0.05873794
9	0x3d634253	0.055483174
10	0x3b7a83a4	0.0038225437
11	0xbd76ce81	-0.06025553
12	0xbcce0b0e	-0.025151756
13	0xbd2010f3	-0.039078664
14	0x3dfc6ebe	0.1232581
15	0x3e10fff2	0.14160135
16	0x3d9a444f	0.0753256
17	0xbca92548	-0.02064766
18	0xbd895db0	-0.067073226
19	0xbca55080	-0.020179987
20	0x3e07433f	0.13209246
21	0x3dc000bb	0.09375139
22	0x3d87d8f1	0.06633175
23	0xbc3b1e95	-0.011420866
24	0x3dfb6dd9	0.12276811
25	0x3da6772e	0.081282005
26	0xbde38a29	-0.11110336
27	0x3d7e7cab	0.06213061
28	0x3db61eee	0.08892618
29	0xbd41c3a3	-0.047305714
30	0xbcef1d3d	-0.029188747
31	0x3db95ad5	0.09050528

tcn.layers.1.conv2.weight f4 [32, 32, 3]
0	0x3dbcb317	0.09213846
1	0x3db3d579	0.08780951
2	0xbcddff49	-0.027099269
3	0xbcd38fbd	-0.025825376
4	0xbc59083c	-0.013246592
5	0x3dc41fd2	0.09576382
6	0x3dbe2b4a	0.092856005
7	0x3cef4a16	0.029210132
8	0x3dcb4431	0.09925116
9	0xbdc7f5e9	-0.097637005
10	0x3d7f34d2	0.062306233
11	0xbd4f5d20	-0.05062592
12	0x3c7cce69	0.015430071
13	0xbd9775bc	-0.07395503
14	0xbdbc9816	-0.092086956
15	0x3cd2e0eb	0.025742015
16	0xbbe2a4ea	-0.006916632
17	0x3d8db3ca	0.06919058
18	0xbd89adbe	-0.06722592
19	0xbdb04f74	-0.086089045
20	0xbd581ea6	-0.052763604
21	0x3d76b8d1	0.06023485
22	0x3d9cd59b	0.076579295
23	0x3cfeaf4b	0.031089446
24	0x3dc09202	0.09402849
25	0xbd0a6cb2	-0.033795066
26	0x3d07a287	0.033113983
27	0xbcfebba0	-0.031095326
28	0x3d08ea4d	0.03342657
29	0xbbd09350	-0.0063652173
30	0xbd505081	-0.050858025
31	0xbcec71d8	-0.028862879
32	0x3d0ab369	0.033862505
33	0x3d056f10	0.03257662
34	0x3d43015c	0.04760872
35	0xbc9be053	-0.019027865
36	0x3db8d1e5	0.09024409
37	0xbdb6ed76	-0.08932011
38	0xbd88f544	-0.06687406
39	0x3d7d8df4	0.061902955
40	0x3d9bfc01	0.07616425
41	0x3da6ee67	0.081509404
42	0xbc85cda0	-0.016333401
43	0x3b004d83	0.001957745
44	0xbd88405f	-0.06652903
45	0x3a14239d	0.0005651059
46	0xbcf9fbde	-0.030515607
47	0xbd9e3e21	-0.07726694
48	0x3c0e1c17	0.008673689
49	0x3cce7b52	0.025205288
50	0x3db8ce2a	0.09023698
51	0x3d008f24	0.03138651
52	0xbd27505f	-0.040848132
53	0x3db29a24	0.08720806
54	0xbc7c6cdc	-0.0154068135
55	0xbd920a53	-0.071308754
56	0x3dbce95e	0.09224199
57	0xbd2757bd	-0.040855158
58	0xbd88eec2	-0.066861644
59	0x3d9a20df	0.07525801
60	0xbd92a4ca	-0.07160337
61	0x3d3ba3f8	0.04581067
62	0xbcfc2be6	-0.030782651
63	0xbd5b4ecf	-0.053541955
64	0x3d87b5c2	0.066264644
65	0x3cd17389	0.025567787
66	0x3dc4e879	0.09614653
67	0x3d96fe78	0.07372755
68	0x3dafc818	0.08583087
69	0x3db26d7d	0.087122895
70	0xbc4548b3	-0.012041259
71	0x3d257e91	0.040403906
72	0xbd48c8dd	-0.049019683
73	0x3dbfb0bf	0.093598835
74	0xbdabd909	-0.083910055
75	0xbd0eacdf	-0.03483283
76	0x3d8d8680	0.069104195
77	0x3d337f67	0.043822672
78	0xbbbb806b	-0.0057220957
79	0xbd9fdc17	-0.07805651
80	0x3d553d2f	0.052060302
81	0xbd819bbd	-0.06328533
82	0x3d58c2c1	0.052920107
83	0x3d6b130b	0.057391208
84	0x3cb0f835	0.02160273
85	0x3d8e72c9	0.06955487
86	0xbc8ac062	-0.016937438
87	0xbdd91785	-0.10600189
88	0x3d91d484	0.07120612
89	0x3dc75aed	0.097341396
90	0xbdde2749	-0.10847337
91	0x3d720c7c	0.059093937
92	0x3d52ab60	0.051432967
93	0x3d9bad82	0.07601453
94	0x3d4b9d5b	0.049710613
95	0xbbc9d202	-0.006159068
96	0x3ce3b585	0.027796516
97	0x3cbba0ff	0.022903917
98	0x3da8e3e9	0.082465954
99	0xbd10e137	-0.03537103
100	0xbccba049	-0.024856703
101	0x3da77720	0.08177018
102	0x3d092ad4	0.03348811
103	0xbd4830c8	-0.048874646
104	0x3d3e3d95	0.046445448
105	0x3babbf79	0.005241331
106	0xbdc53735	-0.096296705
107	0x3d685c5f	0.056728717
108	0xbd79123e	-0.060808413
109	0xbbabf230	-0.005247377
110	0x3c30c1a4	0.010788355
111	0xbd9ac161	-0.07556415
112	0x3dcf0531	0.10108412
113	0x3da832bc	0.08212802
114	0x37d361d4	2.5198715e-05
115	0xbd95baed	-0.07311044
116	0x3d7a4b60	0.06110704
117	0xbde7b246	-0.113133
118	0x3ce91516	0.028452437
119	0x3d34b825	0.044120926
120	0xbd52b9e9	-0.05144683
121	0x3d8c148c	0.068398565
122	0xbb754f60	-0.0037431344
123	0x3d95d936	0.0731682
124	0x3c08eb90	0.008356944
125	0x3c10d8a2	0.008840712
126	0x3db89e95	0.09014622
127	0xbccd8f00	-0.025092602
128	0xbdb44e35	-0.08803979
129	0xbc4ce172	-0.012504922
130	0xbd20c38d	-0.03924899
131	0x3cd18baa	0.025579292
132	0x3da9687d	0.08271883
133	0x3da3f3e1	0.080055006
134	0xbda50e45	-0.08059362
135	0xbdbfcb13	-0.09364905
136	0xbd4dc804	-0.050239578
137	0xbd3200c8	-0.043457776
138	0x3dd1615d	0.10223649
139	0xbd985292	-0.07437624
140	0xbdb383b2	-0.08765353
141	0xbd66518b	-0.05623011
142	0xbd9949a5	-0.0748475
143	0x3d364990	0.04450375
144	0x3dc1cc55	0.09462801
145	0xbdacbc49	-0.0843435
146	0xbd31b970	-0.043389738
147	0x3b1df99d	0.002410508
148	0x3cec3bf0	0.028837174
149	0xbc638d6a	-0.013888696
150	0xbdaed96c	-0.08537564
151	0x3dc66918	0.09688014
152	0x3d51c3f5	0.05121227
153	0xbd8d3721	-0.06895281
154	0x3d1dd3b6	0.03853198
155	0xbdd79b24	-0.105276376
156	0x3d018b39	0.031626914
157	0xbd7409af	-0.059579547
158	0x3ccbf524	0.024897166
159	0x3d62d0a3	0.055374753
160	0xbda67d3c	-0.08129355
161	0x3de47d10	0.11156666
162	0x3d2e74a0	0.04259169
163	0xbc934f09	-0.017982023
164	0xbc3c3537	-0.011487297
165	0x3b70ea3c	0.0036760708
166	0x3db0d25e	0.08633874
167	0x3dd97a72	0.10619058
168	0xbbf44230	-0.007454179
169	0x3dab6148	0.08368164
170	0xbc91c982	-0.017796282
171	0xbdb48506	-0.08814435
172	0x3cbac09d	0.022796923
173	0xbd082a90	-0.033243716
174	0xbd88cb94	-0.066794544
175	0xbd2e3961	-0.04253519
176	0xbd34e291	-0.044161383
177	0xbd657792	-0.056022234
178	0x3da6386e	0.08116232
179	0xbd21865f	-0.039434787
180	0xbd41658b	-0.04721598
181	0x3da6066a	0.08106692
182	0xbd8a1370	-0.06741989
183	0x3dd37eed	0.103269435
184	0xbd6412a6	-0.055681847
185	0x3d9733e5	0.07382945
186	0xbd475446	-0.048664354
187	0x3d99aa8f	0.075032346
188	0x3d748f95	0.059707243
189	0xbb847be0	-0.0040430874
190	0xbdadcb4d	-0.08486042
191	0x3db6fbd5	0.08934752
192	0xbddac46e	-0.10681997
193	0x3d7ed30a	0.06221298
194	0xbc9ed0fd	-0.019386763
195	0xbdb250e0	-0.08706832
196	0xbbd6be48	-0.006553445
197	0x39fab05a	0.00047815108
198	0xbd60288d	-0.054726172
199	0xbd56b213	-0.05241592
200	0xbdabaea8	-0.083829224
201	0xbd3a8496	-0.0455366
202	0xbc67dcda	-0.014151776
203	0x3d1647e4	0.036689654
204	0xbdc79c9f	-0.0974667
205	0x3dbc7adc	0.09203121
206	0xbcf21830	-0.02955255
207	0x3cad9cf3	0.021193003
208	0xbd8964cd	-0.06708679
209	0xbcf4648e	-0.029833104
210	0x3d606b53	0.054789852
211	0x3c998f9b	0.018745234
212	0xbcac23c0	-0.02101314
213	0xbcc7d2c7	-0.024392499
214	0x3daed4ed	0.08536706
215	0x3d9e4ec9	0.07729871
216	0x3d7c522a	0.061601795
217	0xbdca769e	-0.09885906
218	0xbd7e7d36	-0.06213113
219	0xbd4e19bb	-0.050317507
220	0x3da79023	0.08181789
221	0xbd708e7e	-0.05872964
222	0x3dac3690	0.084088445
223	0x3d24c7cc	0.040229604
224	0xbd76ae1a	-0.06022463
225	0xbcd772f2	-0.026299927
226	0xbcec3fb8	-0.028838977
227	0x3c0be5f6	0.008538714
228	0x3bfd091e	0.007722034
229	0x3d053ede	0.032530658
230	0xbdac74e3	-0.08420732
231	0xbc401e92	-0.0117260385
232	0xbdc9e180	-0.09857464
233	0x3da1c759	0.07899351
234	0xbce530e6	-0.027977418
235	0xbd8cea45	-0.06880621
236	0x3d495a05	0.049158115
237	0xbc6b08fb	-0.014345403
238	0xbd9b9f15	-0.07598702
239	0x3da2ea25	0.07954816
240	0x3d4a230c	0.04934983
241	0xbd3ecf6c	-0.04658453
242	0x3ce3b0f0	0.027794331
243	0xbd0b0285	-0.03393795
244	0x3d836bc8	0.06417042
245	0x3d372b5a	0.044719078
246	0xbd580923	-0.05274309
247	0x3dd4dbde	0.10393499
248	0x3d810c69	0.06301195
249	0xbda3539f	-0.07974934
250	0xbcc6612d	-0.024216259
251	0xbd3ed9f1	-0.046594564
252	0xbc152063	-0.00910196
253	0x3c42b614	0.011884231
254	0x3dbe277f	0.09284877
255	0x3b9fa624	0.0048721004

tcn.layers.1.conv2.bias f4 [32]
0	0xbd7aa71d	-0.061194528
1	0xbd9ec256	-0.077519104
2	0xbd30f243	-0.04319979
3	0x3d18db43	0.03731848
4	0xbdab22e3	-0.083562635
5	0xbd3065af	-0.043065723
6	0xbdb30824	-0.08741787
7	0xbd519b2a	-0.051173367
8	0x3d712715	0.058875162
9	0xbc5d8928	-0.01352147
10	0x3dc007f5	0.09376518
11	0x3dbff7ea	0.09373458
12	0xbb793f40	-0.0038032085
13	0x3d695890	0.056969225
14	0x3db3b4eb	0.08774742
15	0x3cb3d600	0.02195263
16	0xbc1428b1	-0.009042905
17	0xbd13be12	-0.036069937
18	0x3d8f5355	0.06998316
19	0xbdb3df54	-0.08782831
20	0x3db03e86	0.086056754
21	0xbdb8f001	-0.09030152
22	0x3d728191	0.059205595
23	0xbc914beb	-0.017736396
24	0xbdabc485	-0.083870925
25	0xbcc09f1b	-0.023513367
26	0xbda29783	-0.07939055
27	0xbb7c6d19	-0.0038517176
28	0xbd65b34d	-0.056079198
29	0xbd459c28	-0.048244625
30	0xbd7de485	-0.06198551
31	0xbd482ae6	-0.048869036

tcn.layers.1.net.0.weight f4 [32, 16, 3]
0	0xbcb0ea87	-0.021596206
1	0xbddd2cf5	-0.107995905
2	0x3c7575ac	0.014981668
3	0x3e015c5b	0.12632887
4	0x3d9ab27e	0.07553576
5	0xbd7f9211	-0.06239516
6	0xbd42c49d	-0.047550786
7	0xbd850bb9	-0.064963765
8	0xbdd600d2	-0.10449375
9	0x3dc7b1a8	0.09750682
10	0xbdd6ea21	-0.10493875
11	0x3de5120f	0.11185085
12	0xbd8a7fcd	-0.06762657
13	0x3dd390c5	0.10330347
14	0x3ca2025e	0.01977652
15	0x3d69aee2	0.057051547
16	0xbe0fb7d0	-0.14034963
17	0xbd17c266	-0.037050627
18	0xbdf37ae2	-0.118886724
19	0xbe07d072	-0.1326311
20	0x3d812bde	0.06307195
21	0x3d36b56d	0.044606615
22	0x3dae13e1	0.08499885
23	0x3cdada9f	0.026715575
24	0x3e05ab7e	0.130537
25	0x3db93648	0.090435565
26	0x3d8f4158	0.06994885
27	0x3d236ee7	0.039900687
28	0x3d9b87e2	0.07594277
29	0xbd505496	-0.050861917
30	0xbdb9439c	-0.090460986
31	0xbd8433ec	-0.06455216
32	0x3da85c51	0.08220733
33	0x3d35af11	0.04435641
34	0xbdd6a317	-0.10480326
35	0xbdf4b01f	-0.11947655
36	0xbd120cd6	-0.035656773
37	0xbd131622	-0.03590978
38	0xbe1178e3	-0.14206271
39	0x3d8baf44	0.06820539
40	0x3db2c79f	0.08729481
41	0x3d3facdb	0.046795707
42	0x3e12ad88	0.1432401
43	0xbdd0c459	-0.101937
44	0xbcaef2e3	-0.021356052
45	0xbe1188c6	-0.14212331
46	0x3cb5f29e	0.022210415
47	0xbdddc1b8	-0.108279645
48	0x3d42bef7	0.0475454
49	0x3dddf95b	0.108385764
50	0xbb788925	-0.0037923541
51	0xba8ee2e4	-0.0010901359
52	0x3d3e1f70	0.0464167
53	0xbd09b7a1	-0.033622388
54	0x3e060f5c	0.13091797
55	0x3c9bb4bb	0.019007077
56	0x3dce7255	0.10080401
57	0xbdb86e30	-0.090053916
58	0x3dda6a8e	0.10664855
59	0xbdfe4d02	-0.12417032
60	0x3d76bf4e	0.060241036
61	0xbb1fd8fe	-0.0024390812
62	0xbd8d2940	-0.068926334
63	0xbda4e1ca	-0.08050878
64	0x3d6918ed	0.056908537
65	0xbde16cfb	-0.110071145
66	0xbc86fbc5	-0.016477475
67	0x3d5f12d9	0.054461334
68	0x3d946729	0.07246239
69	0xbcf23cf0	-0.029570073
70	0xbd6cd4fa	-0.057820298
71	0x3cf03606	0.029322635
72	0x3c815443	0.01578725
73	0x3dcd9b4c	0.10039386
74	0xbe173b5a	-0.14768735
75	0x3dc1047b	0.09424683
76	0x3d377ab8	0.044794768
77	0xbe10a579	-0.14125623
78	0xbdc19fef	-0.09454333
79	0x3dc8ee86	0.0981112
80	0x3bc1b525	0.0059114867
81	0x3ce01c60	0.02735728
82	0x3db2906e	0.08718954
83	0xbd134f70	-0.03596443
84	0xbdf184b9	-0.11792893
85	0xbdbed68f	-0.093182676
86	0xbd2f087f	-0.042732712
87	0x3d2cdc9e	0.042202584
88	0x3de73069	0.112885304
89	0x3dffa6c6	0.124829814
90	0xbdd19ab4	-0.102345854
91	0x3d8eab2b	0.069662414
92	0xbc1a2606	-0.00940848
93	0x3ccdee43	0.025138026
94	0xbaa96238	-0.0012922948
95	0x3d84a548	0.064768374
96	0xbdf10daa	-0.11770184
97	0x3d5f3dfe	0.05450248
98	0x3e0f784c	0.14010733
99	0xbe0a345e	-0.13496539
100	0xbd75cce8	-0.060009867
101	0x3e04e445	0.12977703
102	0x3b200b69	0.0024420863
103	0xbe16579c	-0.14681858
104	0x3db494c1	0.08817435
105	0xbe0c977e	-0.13729665
106	0xbda2ae4a	-0.07943399
107	0xbdc86376	-0.09784596
108	0xbc0ee706	-0.0087220725
109	0x3dfa59b9	0.122241445
110	0xbd96a0df	-0.073549025
111	0x3e09e2eb	0.13465469
112	0xbc9304d4	-0.017946638
113	0xbe178ef8	-0.14800632
114	0xbd50401e	-0.050842397
115	0x3dfbc30f	0.12293064
116	0x3dab6300	0.08368492
117	0xbe0ba191	-0.13635851
118	0xbc2873f6	-0.0102815535
119	0x3e0aadee	0.13542911
120	0xbd328e12	-0.04359252
121	0x3b783ac9	0.0037876836
122	0xbd7c93a5	-0.061664242
123	0xbc7d724f	-0.015469148
124	0x3c923e85	0.017852077
125	0xbd98fa44	-0.074696094
126	0xbc63a972	-0.013895379
127	0x3de707d1	0.11280788
128	0x3c1caf6d	0.009563309
129	0x3cd20156	0.025635403
130	0x3d57ead6	0.05271419
131	0x3d857724	0.06516865
132	0x3d67b233	0.05656643
133	0x3d355165	0.044267077
134	0xbbdd6951	-0.0067569395
135	0x3de22d0e	0.1104375
136	0x3d45c684	0.048285022
137	0x3d8b87cd	0.06813011
138	0xbd8fbd73	-0.070185564
139	0x3d9e4582	0.07728101
140	0x3d4dc5f5	0.050237615
141	0xbdeecd18	-0.11660212
142	0xbcfcb437	-0.030847652
143	0x3e0c7709	0.13717283
144	0x3b62f5b7	0.003463132
145	0xbb314acd	-0.0027052641
146	0x3def2736	0.11677401
147	0xbd9d93d8	-0.076942146
148	0xbdf6e030	-0.12054479
149	0xbe14a9b3	-0.1451786
150	0x3d8a8801	0.06764222
151	0x3d1026a8	0.035193115
152	0x3d9a4436	0.075325415
153	0xbdf7781f	-0.12083458
154	0x3dc495f5	0.095989145
155	0xbd827942	-0.06370784
156	0x3db2eb2b	0.08736261
157	0x3dc496ec	0.095990986
158	0xbca5e39e	-0.020250138
159	0xbdcbdea9	-0.099545784
160	0xbdef6ce5	-0.11690692
161	0xbb03dbe2	-0.0020120074
162	0xbdee86b9	-0.1164679
163	0xbe04d224	-0.12970787
164	0xbc1dcea7	-0.009631789
165	0x3bec2dc2	0.007207603
166	0xbe07b9f4	-0.13254529
167	0x3e0aebca	0.13566509
168	0x3d3beafd	0.0458784
169	0x3dc5bf67	0.09655648
170	0xbde20183	-0.110354446
171	0x3bd22a56	0.0064137382
172	0xbe10659c	-0.14101261
173	0xbc5d261a	-0.013497854
174	0x3cd3338f	0.025781421
175	0x3c925afa	0.017865647
176	0x3ca909ed	0.020634616
177	0x3df668ca	0.12031706
178	0x3dcbcf99	0.099517055
179	0x3e059936	0.13046727
180	0xbcfdf975	-0.03100274
181	0x3d9264c1	0.071481235
182	0x3dec0640	0.115246296
183	0x3e0dbde1	0.13841964
184	0x3d6d4cd2	0.05793459
185	0xbdcc6732	-0.099806204
186	0xbe105bbe	-0.14097497
187	0x3cd378d0	0.025814444
188	0x3dd96042	0.10614063
189	0xbd87236c	-0.06598553
190	0x3dba151f	0.0908606
191	0xbd9a07b6	-0.07521002
192	0xbd91ef21	-0.07125688
193	0x3daaf034	0.08346596
194	0xbce5f06c	-0.028068744
195	0xbd97cad8	-0.07411736
196	0x3dd1f63b	0.10252043
197	0x3d624c88	0.055248767
198	0xbc97f12a	-0.018547613
199	0x3dd550c0	0.104157925
200	0xbda2fddc	-0.07958576
201	0x3da335ef	0.079692714
202	0x3db5d5a9	0.08878643
203	0xbde3db40	-0.11125803
204	0x3dbe1fd6	0.09283416
205	0xbcb49979	-0.022045838
206	0x3da571de	0.08078359
207	0xbd61cc5e	-0.05512654
208	0x3db20412	0.086921826
209	0xbd9069f3	-0.07051458
210	0x3daca48d	0.08429823
211	0xbde05787	-0.109541945
212	0x3d26dc7b	0.04073761
213	0x3df01fb4	0.11724797
214	0x3dde9e84	0.10870078
215	0x3db4c3db	0.08826419
216	0xbd8b929a	-0.068150714
217	0xbdecb416	-0.11557786
218	0xbde91da4	-0.113826066
219	0x3e06f3ca	0.13178936
220	0xbdbb861c	-0.09156439
221	0x3d50a73d	0.05094074
222	0x3d98e2ed	0.07465158
223	0x3d19bc3d	0.037533034
224	0x3db306f3	0.0874156
225	0xbdbc69ec	-0.091998905
226	0xbde6ffbf	-0.112792484
227	0x3d9b1419	0.07572193
228	0xbde1eb92	-0.110312596
229	0xbde33bf9	-0.11095423
230	0x3c98c6d7	0.018649502
231	0xbd3b217a	-0.045686223
232	0xbe112faa	-0.14178339
233	0xbddc545c	-0.10758278
234	0x3d768907	0.060189273
235	0xbacbb1a6	-0.0015540614
236	0xbda51bce	-0.08061944
237	0xbd5a4b30	-0.05329436
238	0xbc93b56e	-0.018030848
239	0x3df33555	0.11875407
240	0xbd16a828	-0.03678146
241	0xbd3e3752	-0.046439476
242	0xbdadc641	-0.084850796
243	0x3df76f9c	0.12081835
244	0x3cc6f9bc	0.024289005
245	0x3d6db1a3	0.058030736
246	0xbd070949	-0.03296784
247	0xbddc0f73	-0.10745134
248	0x3caf9de4	0.021437593
249	0xbda7a83a	-0.081863835
250	0xbdbe920c	-0.093052
251	0x3d29e94d	0.04148226
252	0xbdf03563	-0.11728933
253	0x3d895ad4	0.06706777
254	0x3d7bcc00	0.061473846
255	0xbd62e495	-0.055393774
